deep_learning/lee/hw1/models/model_1_c.ckpt (torch, 61435 bytes, 13 tensors)

layers.0.weight f4 [80, 79]
0.1851747 0.059855543 -0.16033415 -0.30066758 -0.34457868 0.09032765 -0.09560373 -0.050840393
0.11053335 -0.028966371 0.35585237 -0.32278568 -0.5273432 -0.5259064 0.04327756 0.7285243
0.09082897 0.2393522 -0.2275774 -0.18298462 -0.467797 0.021896973 0.1176503 0.048037153
0.11041826 0.054846495 0.3350847 -0.3501375 -0.4055033 -0.48757607 -0.021286491 1.0437365
0.15054 0.1704665 -0.14625002 -0.25515392 -0.37760633 0.17193699 -0.03232076 -0.08473213
0.03346601 -0.014605425 0.29669142 -0.40626773 -0.4561476 -0.3651462 -0.17175168 1.4686819
0.14988126 0.15603946 -0.15172824 -0.21470937 -0.4439474 0.14544123 0.018887822 -0.12251079
-0.034713656 -0.070942365 0.26459688 -0.4602769 -0.4024344 -0.43937966 0.046921697 2.0502574
0.33103275 0.42078084 0.018480018 -0.041513443 -0.30117977 0.19901693 -0.07460973 -0.13146092
-0.06373078 -0.1356279 0.18132538 -0.456585 -0.44783834 -0.4282078 -0.014561329 -0.106258005
-0.14482406 -0.02113191 -0.050644398 -0.008030206 -0.07802391 -0.12584814 -0.0057191923 -0.06522934
-0.04402736 0.008459769 -0.1663629 -0.038479634 -0.16109881 -0.12180866 0.0051646233 -0.18428192
-0.018073536 -0.0286875 -0.041872002 -0.095597975 -0.17728606 -0.09663054 -0.12893164 0.0024499074
-0.20430401 -0.13150299 -0.114877306 -0.0006059855 -0.1719611 -0.15830407 -0.089654386 0.005122617
-0.04739771 -0.026820369 -0.13565144 -0.14593628 0.009938829 -0.17063108 -0.07948824 -0.0044155717
-0.13821433 -0.14560847 -0.17835256 -0.12533386 -0.11326202 -0.18898508 -0.093885645 -0.10664125
-0.11121495 0.011199407 -0.077502124 -0.16236523 -0.056081258 -0.0012306646 -0.15890422 -0.0019041672
-0.07779316 -0.17544466 -0.007861473 -0.21142341 -0.115545616 -0.17053187 -0.0491265 -0.107195966
-0.15147316 -0.13710305 -0.01692491 -0.025787793 -0.033066496 -0.004227616 -0.001931347 -0.20865369
0.0005925372 -0.019493632 -0.14191966 -0.17620224 -0.08222018 -0.044623196 -0.20030165 -0.17650211
-0.18904394 -0.1511165 -0.16733426 -0.15858215 -0.18754488 -0.1545237 -0.09192881 -0.10444315
-0.027653784 -0.15444171 -0.014896423 -0.06977277 -0.20002222 -0.1354135 -0.067302115 -0.027515866
-0.19321647 -0.08376608 -0.023173407 -0.14588454 -0.18275712 -0.03682723 -0.03265121 -0.17315543
-0.015186004 -0.16905698 -0.04650847 -0.0123741925 -0.010702819 -0.12130084 -0.20929244 -0.20184825
-0.06329336 -0.06341354 -0.20659955 -0.14948122 -0.09868877 -0.014076419 -0.019492805 -0.10488157
-0.19373506 -0.10018742 -0.17718685 -0.031122737 0.0038494915 -0.20853035 -0.045722313 -0.12717164
-0.14924127 -0.006928161 -0.010495737 0.0038040131 -0.19813406 -0.07275738 0.0029048547 0.009816185
-0.026200302 -0.07982934 -0.20725822 -0.072631285 -0.10680606 -0.14560509 -0.13806878 -0.1844411
-0.020142138 -0.18399811 -0.047303572 -0.16795644 -0.03525585 -0.0127689615 -0.16740265 -0.17467861
-0.16267836 -0.08879418 -0.08960822 -0.0067177266 -0.060044527 0.023176335 0.10881966 -0.07857369
-0.27983302 -0.30851087 -0.0046759658 0.08298078 -0.10927763 -0.018817022 -0.11104571 0.0579142
-0.24588394 -0.19823527 -0.22217211 -0.15883449 0.4536482 0.14703995 -0.016275812 -0.1521766
00000000: 709e 3d3e 162b 753d a32e 24be 1af1 99be
00000010: 9e6c b0be b4fd b83d e3cb c3bd 043e 50bd
00000020: 4f5f e23d e24a edbc 4832 b63e 2a44 a5be
00000030: f7ff 06bf cda1 06bf d043 313d 9280 3a3f
00000040: 8a04 ba3d be18 753e 0d0a 69be 5260 3bbe
00000050: 1783 efbe 4861 b33c a4f2 f03d 9bc2 443d
00000060: f822 e23d b8a6 603d 3990 ab3e 3945 b3be
00000070: 219e cfbe 92a3 f9be 0261 aebc 2899 853f
00000080: 2827 1a3e c58e 2e3e 91c2 15be 89a3 82be
00000090: 9e55 c1be 4010 303e c662 04bd 0a88 adbd
000000a0: a813 093d 984b 6fbc f0e7 973e 5302 d0be
000000b0: 2e8c e9be 71f4 babe acdf 2fbe c5fd bb3f
000000c0: 797a 193e cfc8 1f3e a65e 1bbe c6dc 5bbe
000000d0: 134d e3be 8cee 143e a2ba 9a3c f0e6 fabd
000000e0: e82f 0ebd 3b4a 91bd 3e79 873e 6aa9 ebbe
000000f0: e20b cebe 5ff6 e0be f730 403d 6b37 0340
00000100: 207d a93e 9670 d73e 6863 973c 000a 2abd
00000110: 3c34 9abe 18cb 4b3e fccc 98bd b19d 06be
00000120: 4885 82bd 0ae2 0abe 5cad 393e 82c5 e9be
00000130: 114b e5be 0e3e dbbe a492 6ebc cc9d d9bd
00000140: c24c 14be d41c adbc 8070 4fbd 2091 03bc
00000150: 00cb 9fbd 56de 00be 1068 bbbb f696 85bd
00000160: 0856 34bd d89a 0a3c 095b 2abe d29c 1dbd
00000170: 16f7 24be d276 f9bd 003c a93b 66b4 3cbe
00000180: f40e 94bc 0c02 ebbc fa81 2bbd dfc8 c3bd
00000190: 7a8a 35be 3ce6 c5bd a806 04be a08e 203b
000001a0: 1235 51be b8a8 06be cb44 ebbd 00db 1eba
000001b0: 9216 30be 761a 22be b89c b7bd a0db a73b
000001c0: 1a24 42bd 64b6 dbbc 36e8 0abe 5270 15be
000001d0: 78d6 223c eab9 2ebe bbca a2bd 80b0 90bb
000001e0: 0f88 0dbe 631a 15be 0ea2 36be 8557 00be
000001f0: ebf5 e7bd 4e85 41be 1e47 c0bd ba66 dabd
00000200: aac4 e3bd b87d 373c 6fb9 9ebd 1243 26be
00000210: 76b5 65bd 404e a1ba cab7 22be 4095 f9ba
00000220: 0552 9fbd c4a7 33be 68cd 00bc 617f 58be
00000230: 2ea3 ecbd e89f 2ebe de38 49bd 8f89 dbbd
00000240: c81b 1bbe be64 0cbe 1ca6 8abc ec40 d3bc
00000250: bc70 07bd d087 8abb 4025 fdba 50a9 55be
00000260: 8054 1b3a 1cb1 9fbc 6353 11be 5c6e 34be
00000270: 0e63 a8bd d0c6 36bd e01b 4dbe f8bc 34be
00000280: bc94 41be 49be 1abe ac59 2bbe 5c63 22be
00000290: c40b 40be 763b 1ebe 2c45 bcbd 4ae6 d5bd
000002a0: 308a e2bc f825 1ebe 2010 74bc 07e5 8ebd
000002b0: a0d2 4cbe d6a9 0abe b1d5 89bd f468 e1bc
000002c0: 8ada 45be 8d8d abbd 28d6 bdbc c262 15be
000002d0: af24 3bbe 26d8 16bd 46bd 05bd a84f 31be
000002e0: b8ce 78bc 461d 2dbe aa7f 3ebd 20bd 4abc
000002f0: e05a 2fbc 936c f8bd c250 56be 4fb1 4ebe
00000300: f39f 81bd f5de 81bd d58e 53be 9b11 19be
00000310: 561d cabd c8a0 66bc 60af 9fbc 26cc d6bd
00000320: 7c62 46be 102f cdbd 7870 35be 1cf5 febc
00000330: c047 7c3b fb88 55be 5247 3bbd 4839 02be
00000340: b4d2 18be a005 e3bb 50f6 2bbc c04c 793b
00000350: a8e3 4abe d201 95bd 605f 3e3b 10d4 203c
00000360: 04a2 d6bc 917d a3bd 803b 54be b6bf 94bd
00000370: 23bd dabd 8019 15be e761 0dbe 21de 3cbe
00000380: 2001 a5bc 006a 3cbe 64c1 41bd c6fc 2bbe
00000390: 7068 10bd e834 51bc 9a6b 2bbe f3de 32be
000003a0: 2895 26be b9d9 b5bd 8484 b7bd 6020 dcbb
000003b0: 40f1 75bd 4cdc bd3c d8dc de3d 3eeb a0bd
000003c0: 4646 8fbe 23f5 9dbe d838 99bb d4f1 a93d
000003d0: f3cc dfbd 2826 9abc ef6b e3bd 7137 6d3d
000003e0: 00c9 7bbe 30fe 4abe 1681 63be 82a5 22be
000003f0: 9444 e83e a491 163e da54 85bc 2fd4 1bbe

layers.0.bias f4 [80]
-0.012154676 -0.057546042 -0.104416385 -0.06829222 -0.055236854 -0.111223124 -0.0129841715 -0.011117093
0.0917391 -0.006784506 -0.05559369 -0.18682402 0.01108918 0.10475542 -0.027179472 0.050975412
-0.03651473 -0.025688946 0.08036362 -0.03886527 -0.0062600537 -0.071936026 -0.13197525 0.014095902
-0.091314495 -0.04687529 -0.09459226 -0.18508449 -0.12306192 0.0089701265 0.0013779107 0.035551712
-0.017775094 -0.04644668 0.020387586 0.062224954 0.0862692 -0.16907638 -0.03536786 -0.06582484
-0.09944911 0.105887234 -0.09479235 -0.09469828 -0.18288693 -0.049836993 -0.12952426 -0.0030461624
-0.044691022 0.050074562 -0.14808142 0.08198102 -0.001716461 -0.0034509748 -0.048363604 0.029004857
0.0557912 -0.0028278627 0.050641894 -0.15196565 -0.12434971 0.089132056 0.05828081 0.08339487
0.07160844 -0.10299028 -0.12666632 -0.106354475 -0.20260711 -0.15421952 -0.06518496 -0.20410568
-0.1892311 -0.06339268 -0.06001439 0.09417094 -0.028120931 -0.12741789 -0.111208536 -0.02429898
00000000: 6824 47bc 66b5 6bbd 42d8 d5bd cbdc 8bbd
00000010: 0a40 62bd f3c8 e3bd 90bb 54bc 7824 36bc
00000020: b6e1 bb3d 9050 debb 36b6 63bd cc4e 3fbe
00000030: 64af 353c 028a d63d 7ca7 debc 98cb 503d
00000040: 7890 15bd a071 d2bc ae95 a43d 3031 1fbd
00000050: 2321 cdbb 3253 93bd 8524 07be 80f2 663c
00000060: 1803 bbbd 4e00 40bd 96b9 c1bd ca86 3dbe
00000070: e307 fcbd 70f7 123c 039b b43a ac9e 113d
00000080: 139d 91bc e03e 3ebd de03 a73c 98df 7e3d
00000090: e8ad b03d 5c22 2dbe e4dd 10bd 2ccf 86bd
000000a0: faab cbbd 68db d83d 7e22 c2bd 2cf1 c1bd
000000b0: b646 3bbe e021 4cbd 02a2 04be 20a2 47bb
000000c0: ef0d 37bd fc1a 4d3d a8a2 17be aae5 a73d
000000d0: e0fa e0ba c029 62bb ea18 46bd 989b ed3c
000000e0: 5085 643d aa53 39bb e06d 4f3d e29c 1bbe
000000f0: 10ab febd de8a b63d dcb7 6e3d eeca aa3d
00000100: 72a7 923d 91ec d2bd d1b4 01be 60d0 d9bd
00000110: 3d78 4fbe b9eb 1dbe b17f 85bd 1401 51be
00000120: ccc5 41be 05d4 81bd a6d1 75bd b2dc c03d
00000130: de5d e6bc d679 02be 4dc1 e3bd a80e c7bc

layers.2.weight f4 [64, 80]
0.45537966 0.109739974 -0.009043656 -0.09500614 -0.022234412 0.17628415 0.0043246 0.1798791
-0.07412256 0.024818435 -0.1679078 0.008197442 0.08335766 0.015606165 0.090483904 0.048572715
-0.104244195 -0.090529464 -0.056232687 -0.08320066 0.09475149 0.17358527 0.13851191 0.03581451
0.02527818 0.096747324 -0.017192788 0.105224654 -0.114454664 0.017921612 0.06029333 -0.09234247
-0.019036354 -0.027184546 0.11725593 -0.051525768 -0.021583945 0.21094492 -0.014582768 -0.02721253
0.028001994 -0.07481957 0.123924054 0.046542823 0.021403901 -0.2711806 0.031678256 0.016085088
-0.005692723 -0.048216626 -0.22998591 0.08706167 0.06713459 0.056843042 0.12414167 -0.019306853
0.027752593 0.08316372 0.006937802 0.03969734 0.0023812812 -0.0014805943 -0.08370869 0.008212008
-0.09768579 0.016235739 0.2099601 0.08496107 0.17811567 -0.045818597 0.11156094 0.0023750663
0.048825726 0.1634003 -0.054135725 0.064817965 0.039862156 0.073408306 0.021741278 0.20069134
-0.08349811 -0.06830885 -0.03165377 0.006243095 0.01049225 -0.003351137 -0.16009575 -0.07989581
0.07943529 -0.09289754 0.08320211 -0.056368575 -0.16790505 0.10990621 0.05700907 -0.14586605
0.053466916 -0.006129831 -0.105153486 0.09603995 -0.07101415 -0.01343289 -0.053848222 0.0025280192
-0.012372144 -0.10120909 0.044577718 -0.048059426 -0.15140732 0.0069801956 -0.062460415 0.080828086
-0.03928663 -0.08894406 -0.13155666 0.047473863 0.03909357 -0.098820806 -0.10406047 0.10602988
-0.012533747 0.05953726 -0.042424828 0.03719616 -0.025448084 -0.07010105 -0.09875637 -0.17724058
-0.062087007 -0.025363006 -0.057237312 -0.07992441 -0.028751269 -0.07107682 -0.109775715 -0.0827554
-0.068896666 -0.07033143 0.09073888 -0.05791714 -0.14326006 0.01482138 0.087432966 -0.03378176
0.033453807 -0.108881645 -0.12670374 -0.09052172 -0.040802382 -0.13485883 -0.023001388 -0.10818473
-0.10894744 -0.16977137 -0.17095608 -0.06117235 -0.015467323 -0.14025481 -0.118781395 -0.012185693
-0.17956345 -0.01898966 -0.19668172 -0.15226337 -0.09528705 -0.11615289 -0.08461133 -0.13453785
0.030917361 0.045491055 -0.06451076 0.13497365 -0.080524854 0.054037854 -0.02774696 -0.12737265
0.10507512 0.028024107 0.07609746 -0.036808923 -0.07281024 -0.010049 -0.051586173 -0.088487566
0.064566165 0.08193824 0.05142416 -0.097911865 -0.0842204 -0.018187061 -0.09476768 0.01177416
-0.010302156 -0.079587854 -0.05752269 -0.018962763 0.08531101 -0.046671182 0.054236665 -0.060322024
-0.049075857 -0.06665233 -0.17710078 0.021462232 -0.12508532 -0.17560458 -0.15193005 -0.10039307
-0.03084439 0.09509428 -0.010558292 0.0072468743 -0.17550164 -0.11342202 -0.11473276 -0.06802889
0.049374938 -0.12888958 0.10946463 -0.12764433 -0.10824703 0.08879264 0.004505612 0.012105249
0.052558407 0.061945155 -0.035199538 0.093195856 -0.1010909 -0.041224018 0.08475228 -0.1229779
-0.0072636157 -0.025940798 -0.0858872 0.07657769 -0.13385275 0.0066165105 -0.116264045 -0.014369361
-0.002254136 -0.11782059 -0.122421116 -0.113965996 -0.16744462 -0.074643224 -0.095276594 -0.19240904
-0.057150055 0.10429627 0.00048527122 0.07821065 -0.13188626 -0.06393373 -0.04860466 -0.09262638
00000000: 8627 e93e 5abf e03d d82b 14bc 9492 c2bd
00000010: f124 b6bc d583 343e 60b5 8d3b 3a32 383e
00000020: 92cd 97bd 0850 cb3c 06f0 2bbe 904e 063c
00000030: 6cb7 aa3d 00b1 7f3c a04f b93d 2ff4 463d
00000040: fb7d d5bd 8367 b9bd 3f54 66bd 1c65 aabd
00000050: 120d c23d 56c0 313e 11d6 0d3e 3cb2 123d
00000060: 3014 cf3c 7623 c63d e4d7 8cbc 0680 d73d
00000070: 3567 eabd 58d0 923c 24f6 763d 0d1e bdbd
00000080: 21f2 9bbc 20b2 debc e123 f03d af0c 53bd
00000090: d0d0 b0bc f201 583e 90ec 6ebc d0ec debc
000000a0: 7064 e53c 013b 99bd e5cb fd3d b0a3 3e3d
000000b0: 3c57 af3c 2fd8 8abe 0fc1 013d e0c4 833c
000000c0: 068a babb cc7e 45bd 6d81 6bbe 644d b23d
000000d0: dc7d 893d 40d4 683d fd3d fe3d 6829 9ebc
000000e0: 6859 e33c be51 aa3d 8056 e33b ae99 223d
000000f0: 450f 1c3b 8010 c2ba 766f abbd a88b 063c
00000100: 7d0f c8bd d000 853c c8ff 563e 1200 ae3d
00000110: f463 363e 48ac 3bbd 107a e43d 00a7 1b3b
00000120: 7cfd 473d 6952 273e 6cbd 5dbd 48bf 843d
00000130: 8046 233d 1857 963d c41a b23c 0882 4d3e
00000140: 0f01 abbd 83e5 8bbd 62a7 01bd e092 cc3b
00000150: b0e7 2b3c c09e 5bbb 24f0 23be 6aa0 a3bd
00000160: f8ae a23d 1141 bebd de65 aa3d bce2 66bd
00000170: 4def 2bbe 8216 e13d 5882 693d e95d 15be
00000180: 2000 5b3d c0dc c8bb b65a d7bd 98b0 c43d
00000190: de6f 91bd a015 5cbc f48f 5cbd 20ad 253b
000001a0: 88b4 4abc b646 cfbd 2097 363d f6d9 44bd
000001b0: 850a 1bbe 20ba e43b 7ed6 7fbd 3289 a53d
000001c0: 04eb 20bd 4e28 b6bd cab6 06be f473 423d
000001d0: 9420 203d 9062 cabd a81d d5bd 3226 d93d
000001e0: 585a 4dbc 58dd 733d a8c5 2dbd 005b 183d
000001f0: 8078 d0bc 2491 8fbd c840 cabd 8e7e 35be
00000200: f24e 7ebd 14c6 cfbc ac71 6abd 69af a3bd
00000210: c887 ebbc b990 91bd 17d2 e0bd aa7b a9bd
00000220: b219 8dbd ed09 90bd 4ed5 b93d 863a 6dbd
00000230: c4b2 12be 60d5 723c 0e10 b33d be5e 0abd
00000240: dc06 093d 57fd debd a0be 01be 7463 b9bd
00000250: 6620 27bd 6f18 0abe 686d bcbc f58f ddbd
00000260: d61f dfbd 8cd8 2dbe 1c0f 2fbe dc8f 7abd
00000270: a86a 7dbc f59e 0fbe a943 f3bd 80a6 47bc
00000280: 7bdf 37be 3490 9bbc ef66 49be eeea 1bbe
00000290: db25 c3bd 91e1 edbd b448 adbd 4ac4 09be
000002a0: 6846 fd3c d454 3a3d 381e 84bd 8836 0a3e
000002b0: 37ea a4bd cc56 5d3d 984d e3bc fa6d 02be
000002c0: a031 d73d d092 e53c fcd8 9b3d f4c4 16bd
000002d0: 891d 95bd 90a4 24bc 064c 53bd f838 b5bd
000002e0: 443b 843d 3ccf a73d 24a2 523d 0486 c8bd
000002f0: bf7b acbd 08fd 94bc 8f15 c2bd 68e8 403c
00000300: 60ca 28bc f5fe a2bd ea9c 6bbd cc57 9bbc
00000310: 8ab7 ae3d 482a 3fbd 4427 5e3d 3a14 77bd
00000320: c403 49bd 0481 88bd e859 35be 90d1 af3c
00000330: 5e16 00be b0d1 33be 8d93 1bbe e29a cdbd
00000340: 60ad fcbc cac0 c23d b0fc 2cbc 3077 ed3b
00000350: b4b6 33be ce49 e8bd 02f9 eabd bb52 8bbd
00000360: 603d 4a3d a1fb 03be fe2e e03d 32b5 02be
00000370: 9eb0 ddbd ead8 b53d d0a3 933b 1855 463c
00000380: 7c47 573d 34ba 7d3d 642d 10bd 78dd be3d
00000390: bf08 cfbd 84da 28bd 9a92 ad3d d6db fbbd
000003a0: a003 eebb cc81 d4bc a1e5 afbd c4d4 9c3d
000003b0: b210 09be 50cf d83b d81b eebd 786d 6bbc
000003c0: 20ba 13bb ec4b f1bd ecb7 fabd 0167 e9bd
000003d0: 9a76 2bbe 8cde 98bd 6020 c3bd e006 45be
000003e0: 2d16 6abd 4899 d53d 006c fe39 e82c a03d
000003f0: 310d 07be b0ef 82bd ae15 47bd e6b2 bdbd

layers.2.bias f4 [64]
-0.13853972 -0.11131846 -0.1500584 -0.20876867 -0.15498717 -0.109380715 -0.50341845 -0.14673793
-0.04902956 -0.0032890812 -0.10643288 -0.006352946 -0.095836885 0.51769847 -0.094107606 -0.18731171
-0.18438539 -0.07438463 4.038073 -0.09604603 0.4770999 -0.018254815 -0.17515334 -0.070264585
-0.038257055 -0.017322809 -0.20510173 -0.029204829 -0.056249015 -0.00019947242 0.7360143 -0.3277259
-0.38330638 -0.14591667 0.49380696 0.6337903 -0.15751232 -0.09333837 2.6878428 -0.21477795
6.9122133 -0.09901643 -0.2564746 -0.15220827 -0.12649426 -0.16455618 0.4280626 0.68368787
-0.00967697 -0.11042441 -0.008921541 -0.04049489 -0.05312971 -0.11610821 -0.6253653 0.23980322
-0.18002531 -0.06356249 -0.1740126 -0.032433316 -0.16047618 -0.007043585 -0.17502871 0.6214249
00000000: 5bdd 0dbe effa e3bd e9a8 19be 74c7 55be
00000010: f5b4 1ebe ff02 e0bd 08e0 00bf 7842 16be
00000020: 38d3 48bd a08d 57bb 7bf9 d9bd 602c d0bb
00000030: 2146 c4bd e387 043f 7dbb c0bd a4ce 3fbe
00000040: 86cf 3cbe f856 98bd e537 8140 c8b3 c4bd
00000050: 7046 f43e 1f8b 95bc 665b 33be e1e6 8fbd
00000060: 6eb3 1cbd 90e8 8dbc 3006 52be f73e efbc
00000070: 5e65 66bd 7829 51b9 6f6b 3c3f b0cb a7be
00000080: bc40 c4be 2e6b 15be 44d4 fc3e 1540 223f
00000090: e94a 21be 3028 bfbd 9e05 2c40 c0ee 5bbe
000000a0: da30 dd40 20c9 cabd a450 83be 7cdc 1bbe
000000b0: b687 01be 6a81 28be 052b db3e 2b06 2f3f
000000c0: 278c 1ebc 3126 e2bd a82b 12bc f8dd 25bd
000000d0: 8a9e 59bd 24ca edbd f117 20bf fa8e 753e
000000e0: 8e58 38be 0d2d 82bd 5c30 32be ccd8 04bd
000000f0: de53 24be e0cd e6bb ba3a 33be b415 1f3f

layers.4.weight f4 [32, 64]
-0.044658802 -0.14690924 -0.094418 0.010265924 -0.103077196 -0.060552828 -0.12752631 -0.1537388
-0.09510722 -0.16167423 -0.07130586 0.06067133 0.06837475 -0.33286217 -0.1167852 0.07712746
-0.20645162 -0.025177151 -0.019547302 -0.07976358 -0.060383923 0.034188196 0.17574695 -0.16137315
-0.1741958 -0.022532985 -0.20954588 -0.09223748 0.11839912 -0.11391032 -0.080689445 -0.095883064
-0.15403853 -0.07855684 -0.18243505 -0.3404061 -0.03272064 -0.12818818 -0.018286616 -0.077118464
-0.04324614 -0.18601057 -0.12349631 -0.10120596 -0.15667343 -0.06564047 -0.19187334 -0.15752177
0.0015922189 -0.07288462 -0.10035063 0.11954981 -0.12921464 0.0021044463 -0.040445864 0.016383722
-0.037059043 -0.05967421 0.028514162 -0.020257838 0.056310505 0.10726978 -0.17834756 -0.19291282
0.021134555 -0.032442465 -0.14120029 -0.045356974 0.022662431 -1.5825033e-05 -0.08543948 0.16898778
-0.09408451 -0.11802014 -0.15639472 -0.04994288 -0.09679139 -0.10148785 -0.06960358 -0.12094991
-0.11240473 -0.07762402 -0.23312157 0.0591639 -0.16617644 -0.05599743 -0.17044973 -0.1069624
-0.14788884 -0.20872624 0.028113931 -0.098812 -0.064741425 0.10361399 -0.019681323 -0.21295542
-0.07407812 -0.1536369 -0.30862778 -0.034702145 0.0073177144 -0.021816067 -0.27619648 -0.2142697
-0.054053627 -0.13122551 -0.11137438 -0.019215465 -0.12599298 -0.06260771 -0.17068209 -0.042472363
0.04528159 0.09782027 -0.019012034 0.08497131 -0.15297125 -0.053586617 0.027215779 -0.08355433
-0.16524322 0.010227963 -0.017242447 -0.097798765 -0.12219736 -0.12409507 0.015084043 -0.0031661093
-0.44324094 -0.087436505 -0.09604608 -0.09867877 -0.068975456 -0.0019008592 -0.14785218 -0.2015023
-0.076883614 0.006723985 -0.11588794 0.046787947 -0.000119417906 -0.13993512 -0.027802259 0.09682758
-0.19655427 0.005452782 -0.29181513 -0.044136047 -0.34947142 0.050459534 -0.21021193 -0.088776544
-0.05652664 -0.035683326 -0.13310638 0.08532144 -0.06099344 0.05034286 -0.31869474 0.011327747
0.011603743 -0.006095648 -0.48584512 -0.35560355 -0.16191491 -0.12541595 -0.24231187 -0.20294535
-0.2727055 0.11272819 -0.004142657 -0.03953039 -0.22395393 -0.029940255 -0.14602992 -0.21971588
0.10584624 -0.054698184 0.017239064 0.06961033 -0.14588955 0.057360664 0.006305091 -0.004526742
-0.29575288 -0.07855193 -0.06601955 -0.1969252 0.0015203059 -0.056701556 -0.17782885 -0.061312135
-0.010804564 -0.122560784 -0.074630305 -0.04064077 -0.09411399 -0.037162274 -0.096684024 0.13653645
-0.20887949 -0.051694997 0.012150988 -0.089295104 0.08550435 -0.21138339 0.022621676 -0.0053758323
-0.041064568 -0.111621425 -0.062461555 0.07621485 -0.0141450465 0.043439716 0.011136398 -0.15658337
-0.05979068 -0.16860995 -0.010634676 0.087282166 -0.07540957 -0.027370542 -0.032722212 -0.053213865
-0.025990874 -0.1083214 -0.0077670813 -0.0010192618 0.024690583 -0.14946827 -0.14205164 -0.12967488
-0.12177242 0.22441125 -0.054791734 -0.101781934 -0.017434098 -0.11071023 0.007021241 -0.146561
0.121231794 -0.04893692 -0.024544835 -0.013918668 -0.22413564 -0.10304928 -0.014303908 -0.0046681613
0.022530414 -0.14602917 -0.11290376 -0.025062859 -0.06552447 0.021856517 -0.11062396 0.0044911206
00000000: 26ec 36bd 606f 16be 395e c1bd 6832 283c
00000010: 231a d3bd 3e06 78bd 4296 02be b46d 1dbe
00000020: 93c7 c2bd ee8d 25be cf08 92bd 8082 783d
00000030: 1008 8c3d e96c aabe 142d efbd 00f5 9d3d
00000040: 0e68 53be 5040 cebc aa21 a0bc 165b a3bd
00000050: 2255 77bd ec08 0c3d 02f7 333e 013f 25be
00000060: 6260 32be 1897 b8bc 3293 56be 01e7 bcbd
00000070: 3d7b f23d d049 e9bd 8240 a5bd 575e c4bd
00000080: 47bc 1dbe 69e2 a0bd 41d0 3abe b549 aebe
00000090: 1406 06bd c343 03be d0cd 95bc 49f0 9dbd
000000a0: dd22 31bd 8e79 3ebe a2eb fcbd 1245 cfbd
000000b0: 006f 20be 836e 86bd 727a 44be 634d 21be
000000c0: 00b2 d03a 8844 95bd a284 cdbd 88d6 f43d
000000d0: d850 04be c0ea 093b 90aa 25bd 2837 863c
000000e0: 39cb 17bd f26c 74bd 8896 e93c c4f3 a5bc
000000f0: d8a5 663d 42b0 db3d bea0 36be f08a 45be
00000100: 6022 ad3c 64e2 04bd cf96 10be 3cc8 39bd
00000110: 90a6 b93c 00c0 84b7 e5fa aebd 220b 2d3e
00000120: 61af c0bd 8bb4 f1bd f025 20be e890 4cbd
00000130: 903a c6bd ddd8 cfbd 528c 8ebd 96b4 f7bd
00000140: 7334 e6bd 58f9 9ebd 6cb7 6ebe d855 723d
00000150: 282a 2abe 905d 65bd 608a 2ebe 1a0f dbbd
00000160: 2c70 17be 55bc 55be 304f e63c f25d cabd
00000170: 2797 84bd 9233 d43d ba3a a1bc fc10 5abe
00000180: 45b6 97bd fe52 1dbe 7604 9ebe d623 0ebd
00000190: 70c9 ef3b 9cb7 b2bc a069 8dbe 8469 5bbe
000001a0: 5667 5dbd fb5f 06be 4018 e4bd c069 9dbc
000001b0: 4e04 01be 7938 80bd 49c7 2ebe 80f7 2dbd
000001c0: 3079 393d fe55 c83d 20bf 9bbc 7005 ae3d
000001d0: 7fa4 1cbe a47d 5bbd a0f3 de3c 881e abbd
000001e0: 8535 29be 3093 273c 0840 8dbc b84a c8bd
000001f0: 9c42 fabd 8e25 febd 1023 773c 807e 4fbb
00000200: 7af0 e2be e911 b3bd cfb3 c4bd 1818 cabd
00000210: 0143 8dbd 4026 f9ba 9066 17be 9e56 4ebe
00000220: 2875 9dbd e054 dc3b a856 edbd b8a4 3f3d
00000230: 0070 fab8 274b 0fbe 90c1 e3bc 8a4d c63d
00000240: 8645 49be 40ad b23b cb68 95be 00c8 34bd
00000250: ebed b2be a8ae 4e3d cc41 57be 7ad0 b5bd
00000260: 7a88 67bd ae28 12bd 0a4d 08be 02bd ae3d
00000270: 42d4 79bd 5134 4e3d f52b a3be 0498 393c
00000280: a01d 3e3c 00be c7bb b1c0 f8be ab11 b6be
00000290: 06cd 25be 0a6d 00be 9a20 78be e8d0 4fbe
000002a0: 0ea0 8bbe 0ade e63d 20bf 87bb 9eea 21bd
000002b0: 2e54 65be 4445 f5bc de88 15be 33fd 60be
000002c0: eac5 d83d 340b 60bd f038 8d3c dc8f 8e3d
000002d0: 1264 15be 04f3 6a3d f09a ce3b 1055 94bb
000002e0: ec6c 97be d6df a0bd 4235 87bd c2a6 49be
000002f0: 0045 c73a e43f 68bd c418 36be 6f22 7bbd
00000300: a005 31bc 2601 fbbd c6d7 98bd f076 26bd
00000310: d6be c0bd 7837 18bd 4602 c6bd 36d0 0b3e
00000320: 81e4 55be 22be 53bd f014 473c 5ae0 b6bd
00000330: e81c af3d e374 58be 1851 b93c c027 b0bb
00000340: 5233 28bd c699 e4bd b0d7 7fbd 8816 9c3d
00000350: a0c0 67bc d8ed 313d 7075 363c 6457 20be
00000360: 12e7 74bd 16a8 2cbe 103d 2ebc fec0 b23d
00000370: 5570 9abd 3038 e0bc ba07 06bd c8f6 59bd
00000380: d0ea d4bc 9cd7 ddbd 0083 febb c098 85ba
00000390: e843 ca3c 360e 19be fc75 11be 7ec9 04be
000003a0: d263 f9bd 10cc 653e 4c6d 60bd 0c73 d0bd
000003b0: f4d1 8ebc 0cbc e2bd 7012 e63b 1614 16be
000003c0: 6048 f83d 1472 48bd 4012 c9bc 200b 64bc
000003d0: d083 65be 800b d3bd f05a 6abc 60f7 98bb
000003e0: b491 b83c ac88 15be 163a e7bd a050 cdbc
000003f0: b131 86bd 700c b33c d18e e2bd 402a 933b

layers.4.bias f4 [32]
-0.10749342 -0.19484463 -0.4417228 -0.15591636 0.03129497 -0.28360462 -0.403926 1.0733912
0.10420436 0.015546881 0.13648857 0.1252489 -0.41209376 -0.070604935 -0.10899995 -0.06181986
1.3686814 -0.26981503 0.62849575 0.50524735 -0.20380178 0.19090316 0.9373187 -0.02661001
0.15234637 -0.13858616 -0.030132182 0.8459708 0.074890144 0.93699175 0.30616647 -0.087102026
00000000: 8325 dcbd 5a85 47be 7e29 e2be 8aa8 1fbe
00000010: 282f 003d a034 91be 64cf cebe e264 893f
00000020: 1869 d53d 58b8 7e3c a9c3 0b3e 3f41 003e
00000030: f4fd d2be 5299 90bd 5e3b dfbd d236 7dbd
00000040: f430 af3f 3225 8abe 19e5 203f e457 013f
00000050: 6ab1 50be 1e7c 433e 1ef4 6f3f 3cfd d9bc
00000060: b000 1c3e 88e9 0dbe c4d7 f6bc 8b91 583f
00000070: 0160 993d b1de 6f3f dac1 9c3e 8c62 b2bd

layers.6.weight f4 [16, 32]
0.044957906 -0.084268324 -0.11287184 -0.1748057 -0.26551026 -0.08536205 -0.16018066 0.017161407
0.016352937 -0.008391924 -0.063252494 -0.07906376 0.075822756 -0.013759285 -0.080923595 -0.25339085
-0.29637682 0.052639812 0.1508591 -0.1558595 -0.26696825 -0.03181372 -0.06668967 -0.08396352
-0.2072226 0.02282568 -0.037687942 -0.083113015 -0.0957527 -0.44132164 -0.22584282 -0.09387509
-0.021525912 0.06356488 -0.050811335 -0.20138359 -0.014199525 0.044984415 -0.26334694 -0.041274734
-0.21327242 0.06341706 0.10806219 0.04924503 0.01674077 -0.13984253 0.13770925 -0.15255448
-0.2506351 0.14980657 -0.020347476 -0.04995144 0.013270825 -0.08846439 -0.1502288 -0.071870536
-0.0629112 -0.092896305 0.031006992 -0.029189587 -0.026393682 -0.03586767 -0.19611256 0.04115218
-0.01659298 -0.01163923 -0.01783289 -0.13913979 -0.42501917 -0.010488391 -0.10436955 -0.39498925
-0.053085167 -0.042773113 0.011236006 0.011889897 0.08862032 0.094727196 0.00093477964 -0.015886923
-0.24161346 0.06420573 -1.4005111 0.10073411 -0.006577 -0.2573217 0.56574607 0.08569611
-0.08673772 -0.039321326 -0.15344015 -0.0018795786 0.17413011 0.4753041 -0.01205033 0.061528265
0.13891564 -0.06415199 -0.11746552 0.120700136 -0.13073052 -0.056511313 0.06508729 -0.093033694
-0.14372562 0.007677242 0.014904916 0.02828759 0.020807981 -0.12939371 0.058583662 -0.130058
-0.0958606 0.16227888 -0.1313492 -0.23221664 0.07750185 -0.15520087 0.011350028 -0.22064608
-0.054835767 -0.16410376 0.02847074 -0.030901767 -0.021982536 -0.063571975 0.092775956 -0.13322608
-0.15406662 0.04447718 0.047207102 -0.040693387 -0.059961326 0.057611227 0.049032405 -0.3041138
-0.22712779 0.06834416 0.065847725 -0.12872796 -0.05820463 -0.17577176 0.13371436 -0.034221075
-0.17810246 -0.16557783 -0.07508502 -0.14785087 0.075793095 -0.13965416 -0.1347328 -0.032456577
-0.04710476 0.024774112 -0.004922606 -0.21330002 -0.032268137 -0.034909174 0.050999 0.030963346
0.0538515 -0.24575102 -0.011774838 -0.060422033 -0.59435165 -0.09561957 0.06610875 -0.12489138
-0.36158127 -0.24636663 0.03813383 -0.17303298 -0.09114446 -0.12111521 -0.10301415 -0.032095484
0.0128994435 0.08161555 -0.47601408 0.03214088 0.04605913 -0.25280255 -0.032703385 -0.024814129
-0.2460649 -0.04293795 0.062116437 -0.009513937 0.13510048 -0.1505768 -0.18940896 0.15895809
0.14061742 0.06530757 -0.06313945 -0.07735826 -0.17477405 0.09418751 -0.14314659 0.1738184
-0.14500837 0.11925669 -0.102391616 -0.15298954 0.053136274 0.150634 0.020389378 0.10424884
-0.30050543 -0.13168815 0.07549566 -0.14747673 0.09005271 -0.28904188 -0.06336635 0.022504866
0.3205431 0.12671499 -0.053608723 -0.3214349 -0.07629315 -0.3802855 -0.11012772 0.073761865
-0.026186004 -0.27240273 0.014369495 0.056408077 -0.08662813 -0.17694433 -0.23193896 -0.24955523
-0.24065249 -0.24664417 0.21071148 0.12967765 0.15723975 0.09302245 -0.08810963 -0.15796606
-0.16058876 -0.012082472 -0.17119986 -0.14039673 0.03593179 -0.08325165 -0.4366723 0.049457744
0.014541633 0.009248599 -0.12152206 -0.34328234 0.010814389 -0.09043708 -0.18517253 0.051177338
00000000: c825 383d df94 acbd 5a29 e7bd 4400 33be
00000010: f6f0 87be 4cd2 aebd 6606 24be 1496 8c3c
00000020: 98f6 853c 487e 09bc 868a 81bd 2eec a1bd
00000030: f648 9b3d a06e 61bc 45bb a5bd 72bc 81be
00000040: b4be 97be d89c 573d cf7a 1a3e a299 1fbe
00000050: 10b0 88be 1a4f 02bd 9894 88bd 11f5 abbd
00000060: 2932 54be ecfc ba3c ac5e 1abd 2837 aabd
00000070: fe19 c4bd e9f4 e1be 5743 67be 9541 c0bd
00000080: 1c57 b0bc 4e2e 823d 8c1f 50bd 8037 4ebe
00000090: 20a5 68bc 9441 383d 69d5 86be b20f 29bd
000000a0: 1664 5abe cee0 813d b64f dd3d 28b5 493d
000000b0: f023 893c e132 0fbe a703 0d3e 3e37 1cbe
000000c0: 3e53 80be e566 193e c0af a6bc e299 4cbd
000000d0: e06d 593c d12c b5bd 94d5 19be dc30 93bd
000000e0: 96d7 80bd 6b40 bebd 6002 fe3c 001f efbc
000000f0: 9037 d8bc fae9 12bd bbd1 48be 308f 283d
00000100: 00ee 87bc 78b2 3ebc 4816 92bc a97a 0ebe
00000110: 1d9c d9be 80d7 2bbc b4bf d5bd 083c cabe
00000120: d56f 59bd dc32 2fbd 3a17 383c d8cd 423c
00000130: 927e b53d 5500 c23d 000c 753a 4b25 82bc
00000140: 8569 77be 4b7e 833d f343 b3bf af4d ce3d
00000150: e083 d7bb abbf 83be bcd4 103f 7181 af3d
00000160: 8ca3 b1bd 660f 21bd 6a1f 1dbe 315c f6ba
00000170: 2a4f 323e 0f5b f33e bf6e 45bc 1005 7c3d
00000180: e73f 0e3e 1e62 83bd c391 f0bd a231 f73d
00000190: 39de 05be 6878 67bd 7c4c 853d 7388 bebd
000001a0: cf2c 13be 6091 fb3b c033 743c 60bb e73c
000001b0: 8075 aa3c c97f 04be 6cf5 6f3d ed2d 05be
000001c0: 9052 c4bd 6f2c 263e 6880 06be 33ca 6dbe
000001d0: 4ab9 9e3d faec 1ebe 78f5 393c 0cf1 61be
000001e0: 789b 60bd d10a 28be 783b e93c b425 fdbc
000001f0: b814 b4bc 0632 82bd 5201 be3d 6b6c 08be
00000200: a4c3 1dbe b42d 363d 3c5c 413d 1cae 26bd
00000210: 029a 75bd c0f9 6b3d 34d6 483d ceb4 9bbe
00000220: 3094 68be 06f8 8b3d 2cdb 863d 43d1 03be
00000230: fa67 6ebd 83fd 33be 6bec 083e 662b 0cbd
00000240: 7e60 36be 3c8d 29be 2dc6 99bd 3866 17be
00000250: 6939 9b3d 8001 0fbe 65f7 09be 30f1 04bd
00000260: ecf0 40bd 14f3 ca3c d04d a1bb 526b 5abe
00000270: 982b 04bd ecfc 0ebd 54e4 503d d8a6 fd3c
00000280: 6493 5c3d 28a6 7bbe 40eb 40bc 187d 77bd
00000290: 6e27 18bf 31d4 c3bd 0664 873d 0dc7 ffbd
000002a0: 2e21 b9be 8947 7cbe 3832 1c3d 8f2f 31be
000002b0: f2a9 babd 400b f8bd 15f9 d2bd 8e76 03bd
000002c0: 3058 533c 0e26 a73d 1eb8 f3be 28a6 033d
000002d0: 80a8 3c3d 566f 81be fcf3 05bd 0047 cbbc
000002e0: 70f8 7bbe b4df 2fbd ce6d 7e3d 58e0 1bbc
000002f0: c857 0a3e ce30 1abe 6cf4 41be e9c5 223e
00000300: 03fe 0f3e fabf 853d 424f 81bd 026e 9ebd
00000310: f8f7 32be 62e5 c03d 0595 12be 73fd 313e
00000320: 137d 14be da3c f43d b2b2 d1bd 4aa9 1cbe
00000330: 6ca5 593d cd3f 1a3e a007 a73c 6a80 d53d
00000340: d9db 99be 42d9 06be 789d 9a3d 2404 17be
00000350: 8e6d b83d 4cfd 93be 38c6 81bd 205c b83c
00000360: 3a1e a43e 93c1 013e d294 5bbd 1d93 a4be
00000370: 953f 9cbd c8b4 c2be a48a e1bd 7610 973d
00000380: 0884 d6bc 5f78 8bbe 086e 6b3c 280c 673d
00000390: 176a b1bd e530 35be 6881 6dbe 688b 7fbe
000003a0: 9b6d 76be 4a90 7cbe c0c4 573e 38ca 043e
000003b0: 7503 213e 8e82 be3d d272 b4bd dbc1 21be
000003c0: 6171 24be 90f5 45bc 044f 2fbe 29c4 0fbe
000003d0: 362d 133d d77f aabd 8393 dfbe 3494 4a3d
000003e0: 0840 6e3c 7087 173c 8fe0 f8bd b4c2 afbe
000003f0: d62e 313c 1337 b9bd de9d 3dbe 549f 513d

layers.6.bias f4 [16]
-0.34704095 -0.16043259 2.9775677 -0.16797154 -0.3864395 -0.20227285 -0.9065649 -0.100974515
1.3698301 -0.009218805 -0.91831344 0.84785044 -0.03866076 0.0997548 -0.009092709 -0.18607906
00000000: 5aaf b1be 7148 24be 7890 3e40 bb00 2cbe
00000010: 66db c5be 9d20 4fbe a314 68bf bacb cebd
00000020: 9856 af3f 780a 17bc 9716 6bbf ba0c 593f
00000030: bf5a 1ebd 3f4c cc3d 96f9 14bc 828b 3ebe

layers.8.weight f4 [8, 16]
-0.045689404 -0.1930686 -0.09547612 0.16203192 0.22969514 0.00047827512 0.278087 -0.032775104
0.15441796 0.1564148 0.044582404 -0.28676957 -0.30668744 0.08384759 -0.2689664 -0.045357466
-0.04533212 0.22358547 0.4745834 -0.13867891 -0.0027719885 0.4610408 -0.0680293 -0.09299831
-0.84329814 -0.030978896 -0.12221779 -0.8809311 -0.1997182 -0.04982746 -0.0018547737 -0.0031161709
-0.378335 0.09060681 -0.31651133 -0.11959214 0.13148296 -0.22221254 0.11299318 -0.26364905
-0.16849212 0.21477537 0.07800482 -0.8929476 0.043534394 -0.29295057 -0.1688449 -0.13185185
0.0014662445 0.24569088 -0.10312465 -0.005246341 -0.07305795 0.015075356 -0.09361908 0.035024494
-0.07271975 -0.08847833 0.009343773 -0.2453861 -0.08181006 -0.24625513 -0.1449888 -0.06473884
-0.003979463 0.10017258 -0.18778642 -0.1724276 -0.2262668 -0.14285147 0.18769354 -0.12229803
-0.23000437 0.05985284 -0.16630515 -0.20682333 -0.10262954 -0.011866778 -0.18916279 0.22683346
0.069340944 -0.12407735 -0.056114856 -0.230867 -0.083274186 -0.04477492 0.009155884 -0.24910185
-0.09264535 -0.12343082 0.13112772 -0.14647439 0.034133077 -0.23752865 -0.19937308 -0.24753508
-0.08485373 -0.021916091 -0.31633455 0.0679411 -0.08172989 0.23235577 0.04451698 -0.06962833
-0.49424165 -0.1973595 -0.08301857 0.04709448 -0.03345089 0.046435352 -0.4021919 0.039562374
-0.026444487 -0.0806245 -0.042603947 0.035397798 0.013187014 0.55083644 -0.1908338 -0.004121743
-0.2165846 0.008403689 0.2607013 -0.6800446 0.49724168 0.6546909 -0.21300216 0.017966628
00000000: d024 3bbd c6b3 45be fc88 c3bd b2eb 253e
00000010: 3435 6b3e 00c1 fa39 6b61 8e3e 303f 06bd
00000020: be1f 1e3e 342b 203e 0a9c 363d 76d3 92be
00000030: 2306 9dbe 49b8 ab3d f7b5 89be c0c8 39bd
00000040: 2cae 39bd 97f3 643e 98fc f23e d801 0ebe
00000050: 40aa 35bb 8a0d ec3e f252 8bbd e675 bebd
00000060: 63e2 57bf 74c7 fdbc 524d fabd b384 61bf
00000070: ee82 4cbe e117 4cbd e11b f3ba ac38 4cbb
00000080: 20b5 c1be 1090 b93d c60d a2be b9ec f4bd
00000090: 78a3 063e af8b 63be f868 e73d 02fd 86be
000000a0: 3389 2cbe 13ee 5b3e fec0 9f3d 3798 64bf
000000b0: 1f51 323d 9efd 95be ade5 2cbe 2c04 07be
000000c0: 002f c03a 6496 7b3e 0433 d3bd 80e9 abbb
000000d0: 689f 95bd a0fe 763c 5cbb bfbd d875 0f3d
000000e0: 18ee 94bd 2034 b5bd a016 193c 7e46 7bbe
000000f0: 088c a7bd 4e2a 7cbe f277 14be cc95 84bd
00000100: 2866 82bb 4827 cd3d 154b 40be dc90 30be
00000110: 7cb2 67be a847 12be bc32 403e 6477 fabd
00000120: 4486 6bbe 4028 753d e64b 2abe 7fc9 53be
00000130: 702f d2bd e06c 42bc e4b3 41be 0847 683e
00000140: a002 8e3d 441c febd b1d8 65bd 6668 6cbe
00000150: a88b aabd e865 37bd 9002 163c 8e14 7fbe
00000160: d8bc bdbd 4cc9 fcbd 5846 063e 62fd 15be
00000170: 20cf 0b3d b63a 73be 7528 4cbe d679 7dbe
00000180: cbc7 adbd 6089 b3bc 9af6 a1be b424 8b3d
00000190: 0062 a7bd acee 6d3e 7057 363d 4c99 8ebd
000001a0: 3e0d fdbe 9c18 4abe a405 aabd 24e6 403d
000001b0: cd03 09bd ff32 3e3d 19ec cdbe 280c 223d
000001c0: 1ca2 d8bc 751e a5bd 7a81 2ebd 48fd 103d
000001d0: 580e 583c 9e03 0d3f f069 43be b00f 87bb
000001e0: 5ac8 5dbe a0af 093c a47a 853e 6717 2ebf
000001f0: 7696 fe3e d399 273f 3d1d 5abe c02e 933c

layers.8.bias f4 [8]
-0.39258495 4.004241 0.16605975 -0.042972714 -0.031190505 -0.27503505 -0.0016897987 0.42313603
00000000: e500 c9be be22 8040 910b 2a3e 2804 30bd
00000010: 3b83 ffbc 65d1 8cbe 3c7c ddba 49a5 d83e

layers.10.weight f4 [4, 8]
0.041274443 -0.41086048 0.00019528717 0.12819803 0.25501588 -0.1296354 -0.336829 0.07609774
0.0519993 -0.15552545 0.1762186 0.12193602 -0.321171 -0.3143332 -0.13549289 -0.049141258
0.09975666 0.4957275 -0.09299247 0.16629264 -0.117358625 0.08815867 0.04332148 -0.23344858
-0.32931194 -0.10799287 -0.075747795 0.32571402 -0.3358989 0.32693782 0.11616603 0.45376855
00000000: 640f 293d 4e5c d2be 00c6 4c39 5846 033e
00000010: 7191 823e 24bf 04be da74 acbe 22d9 9b3d
00000020: 38fd 543d 1042 1fbe a672 343e 98b9 f93d
00000030: 8670 a4be 48f0 a0be a6be 0abe 5848 49bd
00000040: 384d cc3d ffcf fd3e d672 bebd 9e48 2a3e
00000050: b859 f0bd 888c b43d dd71 313d 250d 6fbe
00000060: 939b a8be 5e2b ddbd a921 9bbd fdc3 a63e
00000070: f1fa abbe 6564 a73e 75e8 ed3d 5a54 e83e

layers.10.bias f4 [4]
-0.018472869 -0.222026 1.5664692 0.2983941
00000000: 6a54 97bc c95a 63be 1082 c83f 1dc7 983e

layers.12.weight f4 [1, 4]
-0.30178976 -0.39390248 0.5008126 -0.20304343
00000000: 3084 9abe 96ad c9be 4135 003f 9eea 4fbe
