deep_learning/lee/hw1/models/model.ckpt (torch, 10135 bytes, 5 tensors)

layers.0.weight f4 [16, 117]
00000000: 1bd4 8ebe 2a0d b33d 8407 7b3d 9c81 49bb
00000010: 62b0 a13d 40df 983c 1a79 b3bc 6f65 0b3d
00000020: 5505 2e3d a802 573c 9165 91bc bbbc 86bc
00000030: d4c3 87bc f7d6 6abc d161 a93c 873e 5a3c
00000040: 1698 453d 724d ac3c e1f0 b73d 3be9 883d
00000050: 7203 8a3d 81f4 6cbd 96b5 853d 38a9 963d
00000060: 720b 783d 1436 2dbd 853b 523d ab17 913d
00000070: 19db b6bd 671c 843d 2145 633d 3f53 a7bd
00000080: f374 46bc 0101 edbc 8742 6ebc 653d 203d
00000090: 2f28 bfbc 137f 92bd 41eb 1a3d 7af4 4e3d
000000a0: 767e 8dbc 0d52 b63d aa84 f1bc af52 8ebd
000000b0: ebad 93bd 1135 a9bd 8cf9 7d3d dae9 02bd
000000c0: 57ac 0a3d 3692 86bd 59b5 86bd 8c63 893d
000000d0: 8e2b 023d b604 21bd 094f 443d 3033 5abd
000000e0: f8fe 0ebc 6be2 87bd 6d7f 453c 7b16 7bbc
000000f0: 17cd 94bd 8467 a7bd 4622 01bd 653e 343c
00000100: f382 3abd 45db 8bbd 8732 413d 2a25 9f3c
00000110: 20a8 ad3d 133d 953d c9c7 283d fbc3 693d
00000120: e858 99bd 0ba6 61bd cae1 513d e33d b23d
00000130: 8f89 6f3d 2bd3 30bd ff1c 773d d84f cabd
00000140: 5e9d fe3c 077b a5bc c9a5 6a3d 9ce8 a83d
00000150: 7d8c aa3d 9df3 b03d 61c8 5e3d 15ad c9bc
00000160: fc0b a4bb 4060 acbc 888f 533d b82b 963a
00000170: ab23 50bd 9294 49bd d499 92bc 3f94 f23c
00000180: 759d 913d 0c5e 363c e02d 89bd 78cc 453d
00000190: 3c71 4cbd 426d 533d e195 4a3d 57c0 c53b
000001a0: e34c f6bb 9395 af3c ec07 0d3d 64c0 943d
000001b0: 0166 2dbd 9019 7a3d 3dcb 843a cbee 903c
000001c0: 61c7 8dbd e07f fd3b 38a3 a93d 8a88 2a3d
000001d0: 9b67 2cbb 2a59 a33b 3bb6 e13c f294 823d
000001e0: 9610 c83d 8d89 0ebc 4051 8c3c 5897 27bc
000001f0: 7bf3 373d 44ff 2fbd 36d2 6d3d 48a2 5a3c
00000200: eefb a8bb 0644 b13c 749b 953d 690e 0fbd
00000210: 1a26 c1bd fd4c 66bb d583 95bd 2d70 6c3d
00000220: 28bd be3d c9fb ad3c 3587 cc3d 389f 863d
00000230: 8120 01bd ad7f a53d 47a8 afbd e8ab 99bd
00000240: 6bc7 4abd ad4c 08bd 394e 463c 387c 053d
00000250: 37c4 c03d c2d2 d7bb 4fcd 5bbd 82f8 b83c
00000260: ad1f b33b 459e 77bd db52 bbbb 06a5 eebc
00000270: 2474 633d 248c 833d f6a5 4f3d 3f4a 0a3d
00000280: 5e87 98bc d186 193d b4e1 2b3c 69f1 1a3d
00000290: 0e96 99bd 293c dd3a cc48 96bc 43bf 6c3d
000002a0: 011f b4bd c22d 41bd 4418 2c3e 8ef6 d5bc
000002b0: 7cb7 e6bc 8027 75bc 7c29 d13c 17e0 603d
000002c0: 0a54 9a3d 200e 393c 1bf8 20bc 0943 d039
000002d0: a1fd 073d 79cb de3c 577e adbb 1aad 54bd
000002e0: e123 5abd 201b 1ebc 6d45 bb3e 5471 53bd
000002f0: f766 98bc d2a5 593c 2f1e dabc 9284 873d
00000300: a87d f9bc b7ca 81bd 59e5 123d 6065 323d
00000310: ac39 34bd 4c86 7dbc 8eb9 3a3c 9e95 be3c
00000320: 7007 693d 935a 2d3d e430 103f 417a 2d3c
00000330: effb c83b cc3a cbbb 0163 f23d 7fc7 2f3d
00000340: 773d 903b 5ac3 2e3d 486b b6bd e4c0 c03d
00000350: 5797 6dbd 4622 4fbd e85e c3bd 3200 463d
00000360: eb8d 36bc 458f ddbd c0e8 2e3f 6405 193d
00000370: 8fcc a83d dbb8 093e 7cbe 7b3d c1ae a63c
00000380: 5f63 2dbd a22f b73c 898a d83c 6f07 5ebd
00000390: ab05 433d b2ee 9b3d 1cc4 99bc bd7f 843c
000003a0: c2bc c9bd 4afb e9ba f9d6 45bd 98d8 a6bd
000003b0: 52ac 82bc 72d7 f3bc 86f9 3c3d 16c6 953d
000003c0: ca9f 903d 7511 8036 ef8a 0abd 7bad 523d
000003d0: 1011 9bbd e5ab b23b 6c08 71bd 8532 b33b
000003e0: 1abe 71bd bcea 38bc 1ef8 23bd 9076 333a
000003f0: c5d4 723b df86 92bd d34b 403d c155 9d3d
-0.278962 0.08742745 0.061286464 -0.003074742 0.078949705 0.018661141 -0.021908332 0.03403228
0.042485554 0.013123192 -0.017748626 -0.016447416 -0.01657287 -0.014333478 0.020676525 0.013320572
0.048240744 0.021033023 0.08981491 0.0668511 0.067389384 -0.057850365 0.065287754 0.07356495
0.06055779 -0.0422879 0.051326293 0.070845924 -0.08928508 0.0645073 0.05548585 -0.08170175
-0.012112844 -0.028931143 -0.014542229 0.03912105 -0.02333459 -0.07153144 0.03782201 0.05052612
-0.017272215 0.08902369 -0.029482204 -0.069493644 -0.072109066 -0.08262075 0.062005565 -0.0319613
0.033855762 -0.06570856 -0.06577558 0.0670844 0.03177982 -0.039311133 0.047926936 -0.053271472
-0.0087277815 -0.06634983 0.012054306 -0.015325184 -0.0726568 -0.08174041 -0.031526826 0.011001204
-0.04553504 -0.06828932 0.047167327 0.0194269 0.08479333 0.072870396 0.041206155 0.057071667
-0.07487661 -0.05508999 0.05124072 0.0870321 0.058480795 -0.043170135 0.060330387 -0.0987851
0.031080898 -0.020200266 0.05728701 0.08247492 0.08327577 0.086402155 0.054390315 -0.024618665
-0.0050063115 -0.02104199 0.051650554 0.0011457121 -0.050815266 -0.049213953 -0.017895617 0.029611705
0.07110111 0.011130821 -0.06698203 0.0482907 -0.049912676 0.05161787 0.049459342 0.0060348916
-0.00751649 0.021433627 0.034431383 0.07263258 -0.042333607 0.061059535 0.001013137 0.01769199
-0.06922794 0.007736191 0.08283085 0.04163412 -0.002630687 0.0049849944 0.027552715 0.06376065
0.097687885 -0.008699787 0.017128587 -0.010228954 0.044909935 -0.04296805 0.0580618 0.013344355
-0.0051569855 0.021638881 0.07305041 -0.034925852 -0.094310954 -0.0035141103 -0.073005356 0.057724167
0.093134224 0.021238225 0.09986726 0.06573337 -0.03152514 0.08080993 -0.08577018 -0.07503492
-0.049506586 -0.03327625 0.012103611 0.032589167 0.09412425 -0.0065864036 -0.053662594 0.022579435
0.0054664225 -0.060453672 -0.0057166643 -0.029131424 0.055530682 0.06423214 0.050695382 0.033762213
-0.018619236 0.037482087 0.010490824 0.037827883 -0.07499324 0.0016878891 -0.01834526 0.05779959
-0.08794976 -0.04716278 0.16806132 -0.026118543 -0.028163664 -0.014963031 0.025532477 0.05490121
0.075355604 0.011294872 -0.009824778 0.00039722797 0.033200864 0.027196633 -0.005294602 -0.051922895
-0.053256873 -0.009650022 0.36576405 -0.05162175 -0.018603785 0.013284164 -0.02662572 0.06617083
-0.030455425 -0.06337493 0.035863254 0.04355371 -0.044000313 -0.015473913 0.011396779 0.023264702
0.05689186 0.042322706 0.563246 0.01058823 0.0061335484 -0.0062020775 0.1183529 0.042914864
0.0044018584 0.04266677 -0.08907181 0.09411791 -0.058005657 -0.050569795 -0.09539586 0.04834003
-0.011142234 -0.10818342 0.683239 0.037358657 0.082421415 0.13449423 0.061460957 0.020347001
-0.042331096 0.02236158 0.026433246 -0.054206308 0.047612827 0.07613887 -0.01877027 0.016174192
-0.09850456 -0.0017851379 -0.048300717 -0.08146781 -0.01595131 -0.029765818 0.0461364 0.073131725
0.07061727 3.8167295e-06 -0.033823904 0.051434975 -0.07571614 0.0054526203 -0.058845922 0.005468669
-0.059019186 -0.011286434 -0.040031545 0.00068459753 0.003705309 -0.07154631 0.04694731 0.07682372

layers.0.bias f4 [16]
00000000: 5597 a23c 3b5e 843d e4e6 a8bd 3589 5abd
00000010: 0375 6ebc 6762 b6bd a39f b1bd 7efa 8fbd
00000020: fbf3 743d 2017 4bbc 2865 a9bd 8184 74bd
00000030: 72fe 3f3d 5738 563d 3288 833d 37e0 f2bc
0.019847551 0.064632855 -0.08247164 -0.053353507 -0.014554265 -0.089054875 -0.086730264 -0.070301995
0.05980299 -0.01239565 -0.08271247 -0.059696678 0.046873517 0.052299824 0.064224616 -0.02964793

layers.2.weight f4 [8, 16]
00000000: 1213 523d feeb 9e3d 7ff9 bbbd ce97 58bd
00000010: 359e 543d 9613 383e 3368 adbd 183e 413e
00000020: f745 903d 36e2 48be bc0e e83d d3e9 7bbe
00000030: 961c 18be 9e03 99bc 860c e5bd 48c2 763d
00000040: 3fd2 30bd 36f1 083c 7a6a 493e 462e 743e
00000050: c587 733d 927d 343e cc45 2d3e eec3 49be
00000060: 3480 8ebd a821 efbd e8f5 0d3e 267d babd
00000070: 409b b6bb a120 493c d752 5dbd 0826 193e
00000080: 4146 433e 8413 dfbc 34bd 443d 1522 18be
00000090: 2148 203d 8593 fb3d 3a6c 5bbe 98e8 fa3d
000000a0: 8b62 e73d 78fb 703d aa33 793e fa0b ff3d
000000b0: 402f a6bc e63b 62be dde7 23be 7d00 563e
000000c0: ecf7 123e 0b97 703e 4d1c 9f3d e5c2 29be
000000d0: bf3d 413e b90c b83c 6be7 a0bd f60c 893e
000000e0: 9264 5b3e e01b e63c 7416 f93d 7efa cf3c
000000f0: 8424 a0bd 6fe7 6d3e a17e 90bd 7083 9b3e
00000100: a9c2 633d 1725 d63c 3075 bb3b 2754 633e
00000110: 2e72 4cbe b84e 0bbe 3f28 8a3d ea69 a1bc
00000120: b6de dbbd 809e 133b 6cd6 34be b505 ed3d
00000130: 0854 203d 8d76 dfbc d2ea 0bbe 8f85 46be
00000140: bc62 62be e8cd cb3d 588b 023e 92a3 413e
00000150: e263 263e f054 e43d 6c8c fb3d 5b0a aebd
00000160: 8d41 14be fcc9 1ebe e6c1 533e 2a41 053e
00000170: 8802 17bd eecc dabb 5ec0 19be 1b88 323d
00000180: c247 453e c661 42be 8f1a 413e 5f62 52be
00000190: 0e7d db3d ab32 0d3e 774e 27be 46c5 8cbe
000001a0: fcc3 43bb a04e a3bd a07f 1ebd 40fc 97be
000001b0: 5638 7f3e 46c7 443e d6b6 6a3c 74ef 7ebd
000001c0: 4dbb 7a3e b12a fb3d 14bc f3bd 70c1 debd
000001d0: 7dc4 ecbd 49c3 57bd 3a07 3abe 3f22 473e
000001e0: 3096 97bd 2602 123e fe1e 073e 8923 813d
000001f0: 6206 12be 4971 403e 8292 8d3e 575f 79bc
0.051287718 0.07759856 -0.09178447 -0.052879147 0.05190869 0.17976221 -0.0846714 0.18871343
0.07044595 -0.19617543 0.11330935 -0.24600916 -0.14854655 -0.018678483 -0.11184029 0.060243875
-0.043169256 0.00835829 0.19669524 0.23845777 0.05945565 0.17626026 0.16921157 -0.19703647
-0.069580466 -0.11676341 0.13863337 -0.091059014 -0.0055727065 0.012275846 -0.05403408 0.14955914
0.19069768 -0.027230985 0.048032 -0.14856751 0.039131287 0.122839965 -0.21428004 0.12251395
0.112980925 0.05883357 0.24336115 0.12453456 -0.020286202 -0.22093162 -0.16006418 0.20898624
0.14352387 0.23495118 0.0776907 -0.16578253 0.1887121 0.022467004 -0.078566395 0.267677
0.21425083 0.028089464 0.12162486 0.025387999 -0.07819465 0.23232816 -0.070554025 0.30373716
0.055605564 0.026140733 0.005720757 0.2220007 -0.19965431 -0.13604248 0.067459576 -0.019703824
-0.10735838 0.0022524893 -0.1765992 0.11573354 0.03914264 -0.02727821 -0.13663796 -0.19386886
-0.22107977 0.09951383 0.12748468 0.18910053 0.1624904 0.11149013 0.12282643 -0.08498069
-0.1447813 -0.15506738 0.20679435 0.1301314 -0.03686765 -0.0066772616 -0.15014789 0.04358683
0.19265655 -0.1898261 0.18857788 -0.20545338 0.10717212 0.1378886 -0.16338526 -0.27494258
-0.0029871454 -0.07973981 -0.03869593 -0.2968464 0.24923834 0.19216642 0.014325818 -0.06224008
0.24485512 0.12264002 -0.119011074 -0.10876739 -0.11560915 -0.052676473 -0.18166819 0.19446658
-0.07401693 0.14258632 0.13195416 0.06305606 -0.14260247 0.18793215 0.2765084 -0.015220485

layers.2.bias f4 [8]
00000000: 14bc 783e dd35 e4bd 1566 5e3e 14c9 6d3e
00000010: 2063 523d ce27 4bbe e979 253e 2b7a 133e
0.24290496 -0.11143086 0.21718629 0.23221236 0.051364064 -0.19839403 0.16159786 0.14402072

layers.4.weight f4 [1, 8]
00000000: d8a8 573e 2113 02be cfff b23d 225a c03e
00000010: 8625 21be f468 b63c a61e 18be 748e 443e
0.21060503 -0.1270261 0.08740198 0.37568766 -0.1573697 0.022266842 -0.14855441 0.19194967
