deep_learning/lee/hw1/models/model_1_b.ckpt (torch, 8335 bytes, 7 tensors)

layers.0.weight f4 [16, 79]
00000000: a716 203c 7cd9 d93d 4bb1 8b3d 1047 6cbc
00000010: eacb 993d 5101 003c 60ad 3dbd 5a2e 103c
00000020: 396b 043d ec12 adbb 6f8e d2bc fbb5 bcbc
00000030: 5bbf e9bc b1c6 bcbc a6ac 543c 781d 59bc
00000040: 8eed 6d3d 26a0 cd3c 27cb d23d 3c1c 933d
00000050: f13c 893d f450 a6bd aae7 813d 7f8d 683d
00000060: c3bb 4d3d ab4a 98bd 159e 6d3d 8347 a73d
00000070: 0795 eebd 7928 9c3d 59c6 483d d8c2 e4bd
00000080: 25f7 87bc 6c30 16bd 6a5c d6bc f691 183d
00000090: dab9 27bd 553e cabd ec2f ff3c 17a1 133d
000000a0: 76d6 21bd c98e ae3d 6507 cfbc dba9 afbd
000000b0: 948f b4bd c2ed b7bd 0b69 823d 20ee 91bc
000000c0: ff96 363d e2ea a0bd 4e43 b2bd 9c8c 953d
000000d0: 302a 0b3d f31e 6fbd 7304 263d 90e1 acbd
000000e0: de60 cabc 1172 cdbd 1afe db3c 64c5 90bc
000000f0: e950 babd 49fd b5bd 5092 48bd 1636 fc3d
00000100: 90c4 44bd 3597 9fbd b0c3 813d 8463 b73c
00000110: a1c1 c13d 8837 943d cbdb f73c d3a0 383d
00000120: 1157 dfbd 3cac b5bd 1e2e 983d c1d2 da3d
00000130: 6da9 8f3d 26b3 2abd be40 863d d323 debd
00000140: 9833 343d b44c debc 48cd 2e3d 8070 523d
00000150: ba5a 923d 7fb7 933d dd97 973c c2f8 6dbd
00000160: 9eae 0fbd d5f5 413b df78 8d3d 8088 b2bc
00000170: 4e55 90bd ba26 1dbd 1b86 e9bd c4b2 393d
00000180: 96e7 b93d 6c7a 5b3c ef80 cebd de87 123d
00000190: 89bc 97bd 2260 473d d689 5b3c 6b12 22bd
000001a0: 0139 45bd 87d1 573d 7bb6 293d e5df 8b3d
000001b0: 39d2 3ebd 278e 8b3d 279f 9e3a 0e5e d53c
000001c0: de38 abbd bbcc 8e3b 6336 a63d 0412 1a3d
000001d0: 2c8d acbc 3551 08bd 178e 2f3c 2a14 4f3d
000001e0: 55a3 613d 6e1c 9b3c d1f0 e03b 5c47 10bd
000001f0: d0d5 4d3d 7b98 98bd c796 433e db69 ae3c
00000200: d66e 9bba 905e 9a3c c934 733d 370c 5abd
00000210: 8208 0ebe 1928 dbbc b1b5 9fbd 1633 593d
00000220: 31b1 933d f66c 823d 99f3 d63d e8e2 263d
00000230: c6b8 66bd c473 963d 2edf da3e 970c 93bd
00000240: 3967 24bd 975f 0f3c 8b9b f93c c97d 473c
00000250: 0d3b 713d db52 22bd eaf7 99bd a8f7 b3bb
00000260: 273a 24bd 4ac8 25bd 004b 9bbc ae7c 8fbd
00000270: 0023 463d b4de 5c3d 5463 6e3d da93 533d
00000280: f7d0 ccbc 6272 a53d 5e2f ca3c 1d6b 8e3c
00000290: 5ec2 c1bd 031e 49bd e948 113d 6e99 a93d
000002a0: 3083 c8bd 8d83 11bd dbdf 0cbd 64e0 41bd
000002b0: e3fb 13bd aff9 c9bd f461 6d3c 8168 8c3d
000002c0: 28bc bb3d fdd8 383d 2749 2e3c 9f53 37bc
000002d0: f668 663d 5d11 67bc 6bce 2d3d 65a8 5dbd
000002e0: f60d 63bd 286c 3c3c 364e 7f3d f770 91bd
000002f0: 1e9d 27bd 877b 10bd e79e 8abd ed48 a63d
00000300: 16f3 13bd d36a 45bd eeb3 813d e142 063d
00000310: d3c7 e2bc 154b 4dbd 9346 883d 4b9b 3c3d
00000320: 5754 c03d 9bb3 a53d be96 bb3d 2832 98bb
00000330: 548f 84bc 77df 9ebc 9d43 c03d 9fe6 723d
00000340: 3cbe 363c d976 a93d 3f5c b9bd 21dc c03d
00000350: a49b 44bd 6931 9fbd 38e4 62bd 615b ba3d
00000360: 3ba3 a53c 8af1 d2bd c937 24bd 7422 b03c
00000370: c857 963d b091 a93e e9b9 de3b b684 243d
00000380: 2f4b 7638 a86f a63d 6fc6 5e3d 66f2 b4bd
00000390: 8f90 b43d 13c2 923d 060a fc3c 712c 483d
000003a0: 22f5 aabd ed65 933c 74d4 27bd 6783 d1bd
000003b0: 5c5f a1bc fbe7 14bd d572 653d 7428 b13d
000003c0: 6fc9 ab3d 5ace dfbb 57dc 2dbd 26d7 723d
000003d0: ac13 c9bd c828 7a3b 7f94 9abd 2013 a43b
000003e0: 67c6 93bd 2325 77bc a50b 4cbd 1d9a 3fbb
000003f0: 9f01 423b 00a0 b2bd a14f 693d 1e6a ba3d
0.009771026 0.10637185 0.06820925 -0.0144212395 0.07509597 0.007812814 -0.04630792 0.008800114
0.032328818 -0.0052817967 -0.025702683 -0.023035994 -0.028533628 -0.023043962 0.012980616 -0.013251655
0.058087878 0.025100779 0.102926545 0.0718312 0.06701077 -0.08120909 0.063430145 0.056775566
0.05022789 -0.07436117 0.058012087 0.08167937 -0.116495185 0.07624907 0.049017284 -0.11169976
-0.01659734 -0.036667272 -0.026167113 0.037248574 -0.040948726 -0.0987517 0.03115078 0.0360423
-0.039511167 0.08523328 -0.02527208 -0.08577319 -0.08816448 -0.089808956 0.063676916 -0.017813742
0.044577595 -0.078573 -0.087042436 0.0730221 0.03397578 -0.058379125 0.040531587 -0.0844146
-0.024704393 -0.10031522 0.026854564 -0.017672248 -0.09097464 -0.08886201 -0.04896766 0.123150036
-0.04803902 -0.07792512 0.063361526 0.02238632 0.0946076 0.07237154 0.030256173 0.04507525
-0.109052785 -0.08870742 0.07430671 0.10684729 0.07014737 -0.041674756 0.06555317 -0.10846677
0.043994516 -0.027136184 0.04267624 0.05137682 0.07146211 0.072127335 0.018505031 -0.058098562
-0.035078637 0.002959599 0.0690782 -0.021793604 -0.070475206 -0.03836701 -0.11402532 0.0453365
0.09077375 0.013395887 -0.10083186 0.035774104 -0.07409007 0.048675664 0.013399562 -0.039568346
-0.048150066 0.052690055 0.041433793 0.06829814 -0.046587203 0.06814223 0.0012101874 0.026045825
-0.08360456 0.004357902 0.08115842 0.037614837 -0.02106341 -0.03328057 0.010715029 0.05055634
0.055087406 0.018934455 0.006864645 -0.035224304 0.050252736 -0.07450958 0.19100486 0.02129071
-0.0011858593 0.018843919 0.05937651 -0.053234305 -0.13870433 -0.026752518 -0.07798327 0.053027235
0.07211531 0.06368439 0.10495681 0.04074374 -0.056328557 0.07346299 0.42748398 -0.07180136
-0.040137503 0.008750818 0.030469676 0.012175986 0.058894206 -0.0396298 -0.07517989 -0.0054921694
-0.04009452 -0.040474214 -0.018956661 -0.07006203 0.048373222 0.053923324 0.058200195 0.051654674
-0.025001986 0.080784574 0.02468079 0.01738506 -0.09460901 -0.049100887 0.035469923 0.082812175
-0.09790647 -0.035525847 -0.034393173 -0.047333136 -0.03612889 -0.098620765 0.014488686 0.0685587
0.09166747 0.04512881 0.010637558 -0.01118937 0.056252442 -0.014103261 0.042433184 -0.05411567
-0.055433236 0.011500396 0.062330447 -0.071016245 -0.040921323 -0.035274055 -0.067685895 0.08119378
-0.036120497 -0.04819758 0.06333147 0.032778624 -0.027683174 -0.050120432 0.06654086 0.046046536
0.093910865 0.08090898 0.09159611 -0.004644651 -0.016181625 -0.019393666 0.09387896 0.05930197
0.011153754 0.082746215 -0.09050798 0.09416986 -0.047999993 -0.07773096 -0.055393428 0.090994604
0.020219436 -0.10299976 -0.040092263 0.021500804 0.07340962 0.33118963 0.0067970646 0.040165626
5.872099e-05 0.081267655 0.05438846 -0.08835296 0.08816635 0.07165923 0.030766498 0.048870508
-0.083475366 0.017992938 -0.040974095 -0.10230141 -0.019698791 -0.036354046 0.056017715 0.08650294
0.0838803 -0.006830019 -0.04244646 0.059287213 -0.09818205 0.003817128 -0.07547855 0.0050071627
-0.072155766 -0.015084538 -0.049815793 -0.0029236146 0.0029603017 -0.08721924 0.056960706 0.091022715

layers.0.bias f4 [16]
00000000: b34d bf3c f32d 60bd 426b b6bd 1c5e acbb
00000010: 2296 ff3a f0fc 23bd 358f 9ebd 3321 9abd
00000020: 1a57 b3bd 96b3 053d 38ba a73c 9c1a 89bd
00000030: 5a02 5cbd 0439 973d 0b6c ccbc 28cd 3cbc
0.02335248 -0.05473132 -0.089071766 -0.005260242 0.0019499699 -0.040036142 -0.07742158 -0.075258635
-0.08756848 0.03264197 0.020474538 -0.066945285 -0.05371318 0.07383922 -0.024953863 -0.011523522

layers.2.weight f4 [8, 16]
00000000: 04b0 86bd 4faf 533e 7017 f53d 798b be3d
00000010: 89df a53d 62ae ee3d aca6 863d 3c32 ce3d
00000020: 0ad9 9f3e 7bf8 723e beb6 2ebe 7b21 34be
00000030: 64d1 99bd 1ba6 febc 358d 10be 1813 ba3d
00000040: 803e 42be 3c36 28be ae0d 7b3e 642c 7c3e
00000050: ad06 75be d268 6d3e 32e4 2cbe fe4d 74be
00000060: fdea 4f3e 457f 753c 701d 2cbe 9b7b 723e
00000070: f860 143d e9d3 09be 2b4b f73d 4059 303d
00000080: ee5b 623d 5d96 a93d 8c7a 26be a381 2a3e
00000090: 4240 6cbe 426b 513e 6858 bcbd 14bb 5c3e
000000a0: e771 1c3e c258 9fbe c442 31be 6d69 4abc
000000b0: 2405 13be 8e07 4f3e aa4c 0ebd 3e84 3f3e
000000c0: 1d78 143e 1b1b 6ebe 6f1d 92be f07b 55be
000000d0: 7a2b ab3e 2a96 1cbe 935a ddbc e50b 483d
000000e0: ea3a 34be c2d5 b2bd f0ae 793e dc3d d63d
000000f0: 7e1c 3dbe c1be 1ebe a123 743e 907d 8a3d
00000100: b64b ed3d 47f2 a53e 1153 883e 6d75 fcbd
00000110: 0c6b 88be 49a1 50be 367a d93c 2abd 44bc
00000120: 0ade 9a3e f654 563e f079 16be 6cc6 5c3e
00000130: e03f 453e 9913 223e e9a0 8f3d 22e6 6dbe
00000140: 098a a53e f13b 493e 57cb 91bd d3c1 0dbe
00000150: e948 60be 0a8c a2bc 9b98 4abd 6ccc a93b
00000160: 1158 ca3e 50dd 363e 442f 1abe fd01 68be
00000170: 7e10 673e 5c99 533e e3b8 c3bc 347e e03d
00000180: ed12 893d 7274 1f3e d30f 76bc c9be d0bc
00000190: 7329 adbd ede8 21be 669a 503e beb2 69be
000001a0: 24ac 3fbe f853 05be e22c 29be 7aa8 153e
000001b0: 4663 1f3e 7e77 34be 98a6 243e f4b2 213e
000001c0: 874a fa3d ce7e f2bd 9a4a b13c 6d5d d93c
000001d0: c827 4f3d 8f5c 933c 4e57 9dbd 1d3f 4a3d
000001e0: 7577 3c3d 9dde 84bd 3e43 1bbe 1708 aa3c
000001f0: 4839 6fbd 22d1 c93d b013 403e 5a57 593e
-0.06576541 0.20672344 0.11967361 0.09303946 0.080992766 0.11654355 0.06574759 0.10068175
0.31220275 0.237276 -0.17061898 -0.17590897 -0.07510641 -0.031085065 -0.14116366 0.09085673
-0.18969154 -0.16426939 0.24516937 0.24626309 -0.23928328 0.23184517 -0.16883925 -0.23857877
0.20304485 0.014983957 -0.16808105 0.23679964 0.03622529 -0.13459744 0.12074884 0.043053865
0.055263452 0.08280633 -0.16257685 0.16651015 -0.23071387 0.20451072 -0.0919655 0.2155574
0.15277825 -0.31122404 -0.17310625 -0.012354237 -0.1435743 0.20217726 -0.03474108 0.1870279
0.14498945 -0.23252527 -0.2853808 -0.2084806 0.33431607 -0.15291658 -0.027020728 0.04883947
-0.17600599 -0.08732177 0.2438314 0.104610175 -0.184679 -0.15502454 0.23841716 0.067622304
0.11586706 0.32411405 0.26625875 -0.12327085 -0.2664417 -0.20374025 0.026547533 -0.012007991
0.30247527 0.20930848 -0.14694953 0.21560067 0.19262648 0.15827788 0.07013113 -0.2323232
0.32331875 0.19651772 -0.07118862 -0.1384347 -0.21902813 -0.019842166 -0.049461942 0.0051818397
0.39520314 0.17857862 -0.15057093 -0.22657008 0.22564885 0.2066397 -0.023891872 0.10961571
0.06693063 0.15571764 -0.015018421 -0.025481598 -0.084551714 -0.1581151 0.20371398 -0.22822091
-0.1871801 -0.13020313 -0.16521028 0.1461505 0.15565214 -0.17623708 0.16079175 0.15790921
0.12221246 -0.11840592 0.021642018 0.026533807 0.050575048 0.017988471 -0.07682668 0.049376596
0.04601236 -0.064877726 -0.1516237 0.02075581 -0.058404237 0.09854342 0.1875751 0.21224728

layers.2.bias f4 [8]
00000000: e1f6 7f3e bc11 e23b 750d a9bd 18df 0dbe
00000010: ec1a 58be 711f 173e 018d f23d 1afd 743d
0.2499652 0.0068990868 -0.0825452 -0.13854635 -0.2110402 0.14758088 0.118433006 0.05981169

layers.4.weight f4 [4, 8]
00000000: 5c47 aa3e bea1 f63a df08 5abe 7fe2 79be
00000010: 4f57 e53e 69b7 aa3e 01f2 8c3d d865 973e
00000020: cf84 4cbe 4802 033e 7dd0 2ebe 3049 ae3e
00000030: d6ee a43e 3acb 80be e44d 88bd d149 28be
00000040: c590 f0bd 0fb8 82be 62b8 903e cb8b 1f3d
00000050: 0c36 583e 44bc 87be 462b 22bd fcbf e7bc
00000060: 3f02 603e 4566 183e b8fa 9fbe 2356 d9be
00000070: 9d4b a73e 5ed9 9c3e d547 01be 0470 99be
0.33257568 0.0018816513 -0.21292447 -0.24402808 0.44793174 0.33343056 0.06882096 0.29569888
-0.19972537 0.12793839 -0.1707172 0.34040213 0.32213467 -0.2515505 -0.066554815 -0.16434409
-0.117463626 -0.2553105 0.28265673 0.038951676 0.21114367 -0.26510823 -0.03959205 -0.028289787
0.21875857 0.14882763 -0.3124597 -0.4244853 0.32674876 0.30634588 -0.12625058 -0.29968274

layers.4.bias f4 [4]
00000000: e002 833d f1df b1be a74b 95be 2fae b43e
0.06397033 -0.34741166 -0.2915928 0.35289142

layers.6.weight f4 [1, 4]
00000000: 2d57 3c3f 9719 00be 08a3 bbbe 97fc 0d3f
0.7357052 -0.12509762 -0.3664782 0.55463547
