deep_learning/lee/models/model_1_a.ckpt (torch, 10767 bytes, 7 tensors)

layers.0.weight f4 [16, 117]
000000 d5 e1 11 be a2 12 b3 3d 9c 5f 79 3d d5 ff 41 bb
       -0.14246304 0.08743788 0.060882196 -0.002960195
000010 c3 a0 a2 3d 8d ef 96 3c 12 b9 b5 bc f3 1c 0a 3d
       0.07940819 0.018424774 -0.022182975 0.033719014
000020 27 58 2d 3d 25 79 55 3c d8 92 8b bc 09 09 88 bc
       0.042320397 0.013029371 -0.017037794 -0.01660587
000030 52 bc 85 bc 9f e1 64 bc d7 83 a8 3c 4f c3 58 3c
       -0.01632515 -0.013969808 0.020570679 0.013230159
000040 f9 b8 45 3d 93 44 aa 3c 9b 3d b7 3d 0b 8a 88 3d
       0.048272107 0.020784652 0.08947297 0.066669546
000050 87 90 89 3d 0f d5 6b bd 01 20 86 3d af b2 96 3d
       0.067170195 -0.057576235 0.06549073 0.073583
000060 1d 9d 7d 3d 0d 82 2e bd 51 de 51 3d 63 69 90 3d
       0.061917413 -0.042604495 0.051237408 0.07051351
000070 33 02 b7 bd b6 d7 83 3d 48 7d 64 3d 56 93 a7 bd
       -0.08935966 0.06437628 0.05578354 -0.08182399
000080 21 51 49 bc 4c 1d ee bc e8 ba 71 bc 06 74 23 3d
       -0.012287409 -0.029066704 -0.014754035 0.03990557
000090 ee 0e c1 bc 08 d5 92 bd bd 9a 2c 3d 4b 31 60 3d
       -0.02356669 -0.07169539 0.042139757 0.05473451
0000a0 25 bd 67 3d 1d b7 20 3e 85 8b 84 bd a4 9e 8d bd
       0.056576867 0.15694852 -0.06471924 -0.06915024
0000b0 eb 49 5d bd b4 cf ae bd dd e6 7b 3d 61 fd ef bc
       -0.05402557 -0.0853571 0.061499465 -0.029295625
0000c0 5c de 36 3d 1e 95 98 bd 3b d7 4e bd 45 f2 9c 3d
       0.044645652 -0.07450317 -0.05049823 0.07663397
0000d0 5b b0 38 3d a2 43 c6 3c 4b e3 54 3d b6 e7 49 bd
       0.04509006 0.024202172 0.051974576 -0.049293242
0000e0 fb f7 84 3d b7 d4 b4 3a ee 4f a4 bc 4b 45 71 bc
       0.06492611 0.0013796304 -0.020057645 -0.014725993
0000f0 2f 6b 50 bd 65 d2 ae bd c8 a7 f6 bc ee d0 54 3c
       -0.05088347 -0.08536223 -0.030109301 0.012989266
000100 06 b1 0e bd ca 52 9c bd a0 98 78 3d f6 4a e4 3c
       -0.03483679 -0.07632978 0.06069243 0.027867775
000110 7f 0b c5 3d 1f f6 0a 3e db 7b 39 3d 63 75 7a 3d
       0.09621333 0.1357045 0.045284133 0.061147105
000120 10 63 dd b9 d0 96 58 3c f4 68 bf 3c af e2 b3 3d
       -0.00042226212 0.01321955 0.023365475 0.08783471
000130 86 bf a6 3d e3 66 49 bd ee 0d 7a 3d e5 90 c7 bd
       0.08141999 -0.049170386 0.06104844 -0.09744433
000140 51 4b 2a 3d d5 86 e3 bc 8f fa 91 3d 89 df b5 3d
       0.041575734 -0.027774254 0.071278684 0.088805266
000150 36 64 c4 3d 2a 1a 1e 3e 80 28 70 3d 80 23 a7 bc
       0.09589426 0.15439668 0.058632374 -0.02040267
000160 db 72 8f 3d 99 90 43 3d 5e 94 e2 3c 4f ef 4e 3b
       0.07004329 0.04774532 0.027658638 0.0031575745
000170 a2 4d da bc da 7f 64 bd 3a 3d 95 bc 25 36 fb 3c
       -0.026648346 -0.05578599 -0.018217672 0.030665467
000180 95 74 a7 3d 84 1a 8c 3b 6a fc 60 bd 81 c3 5e 3d
       0.08176533 0.004275622 -0.05492822 0.054385666
000190 e9 ad 17 bd e1 7a fa 3d 62 d8 5c 3d 6a 78 2b 3c
       -0.037031088 0.122304685 0.053917296 0.010465721
0001a0 2d 57 8f 3d 3d 7f bd 3d 03 21 83 3c 70 05 96 3d
       0.06999049 0.092527844 0.016006952 0.07325256
0001b0 24 c8 9b bc 61 19 5b 3d f1 62 27 bb f9 2e 88 3c
       -0.019016333 0.053491 -0.0025541151 0.01662396
0001c0 98 58 76 bd 04 d1 6e 39 cc 3a c0 3d 13 94 44 3d
       -0.060143083 0.00022775313 0.093862146 0.047992777
0001d0 d8 58 1b 3c c5 66 8b 3b b8 14 e5 3c 69 bd 84 3d
       0.009481631 0.0042541944 0.027963981 0.064814396
0001e0 6a 0d cc 3d 6e 55 23 bc a4 0c 88 3c 06 47 36 bc
       0.09963496 -0.0099690985 0.01660759 -0.011125332
0001f0 f6 fb 35 3d 6b 34 2f bd de 01 71 3d b9 12 63 3c
       0.04442974 -0.0427746 0.05883967 0.013859444
000200 55 aa 8e bb 5b be aa 3c 88 72 92 3d 06 38 11 bd
       -0.0043538013 0.020842722 0.07150751 -0.03545382
000210 f8 a7 c1 bd e0 80 1c bb cf d5 95 bd 30 e0 6d 3d
       -0.094558656 -0.0023880526 -0.073161714 0.05807513
000220 fc e5 bc 3d 25 2e ae 3c 5f c9 ca 3d 4a 99 86 3d
       0.092235535 0.021262238 0.0990169 0.06572206
000230 ca bc 03 bd 19 53 a6 3d 29 70 ad bd 2c 2c 9a bd
       -0.032162465 0.08121318 -0.084686585 -0.07527956
000240 a8 dd 41 bd 3c 69 08 bd 3f 28 4c 3c ef c4 ff 3c
       -0.04733053 -0.033303484 0.012460767 0.031221835
000250 a8 d4 bd 3d 88 70 ce bb cf 76 5f bd e8 56 ba 3c
       0.092690766 -0.006300036 -0.054556664 0.022746518
000260 b5 fa f8 3b 01 ab 78 bd 6f 0c cc bb 03 57 f9 bc
       0.007598246 -0.060709957 -0.006227068 -0.030436998
000270 b2 ce 5e 3d 86 76 7f 3d 65 cb 44 3d 59 ef b2 3a
       0.05439634 0.062368892 0.048045535 0.0013651653
000280 1c c5 41 bc 98 45 0e 3d af 1f c8 3c ad a4 00 3d
       -0.01182678 0.03473434 0.02442917 0.031407047
000290 69 63 a9 bd 3e 59 07 3b 56 eb 96 3c b6 e4 86 3d
       -0.08270914 0.0020652558 0.018422764 0.06586592
0002a0 af f0 bb bd 54 05 86 bc 08 26 ce 3d 74 37 dd bc
       -0.09176766 -0.016359963 0.10065848 -0.027003981
0002b0 e3 d0 eb bc bc 6c 5d bc 77 ae d6 3c c5 3e e1 3c
       -0.028786128 -0.013514694 0.026206238 0.027495751
0002c0 59 09 a8 3d 5b fd 22 3c de b8 c9 ba ba b4 1c bc
       0.08204908 0.0099481 -0.0015390178 -0.009564573
0002d0 0f 85 b3 3c 3a 32 d1 3c 5d 57 00 3d 19 5c 1f bd
       0.021914033 0.025536645 0.031333316 -0.03890619
0002e0 3a c6 5e bd 69 93 ba 3c 29 e9 9a 3e 0b da 56 bd
       -0.054388262 0.022775369 0.30256012 -0.052454036
0002f0 b5 60 9c bc 55 3b 92 3c a4 d5 bc bc ee dc 2a 3d
       -0.019089082 0.017850557 -0.02305109 0.0417146
000300 d1 96 be bc d8 74 82 bd 5d af 3b 3d 67 5c 0b 3d
       -0.023265274 -0.063699424 0.045821536 0.03402367
000310 ce ff 64 bd 55 e1 93 bc 71 33 4a 3d 38 14 1e 3d
       -0.055908017 -0.018051783 0.049365465 0.0385935
000320 5c 97 63 3d ab d7 9c 3d 66 0b 02 3f ef 72 2c 3c
       0.05556427 0.07658323 0.5079864 0.010525449
000330 4e 92 d3 3b c7 ee af b9 8c f7 fb 3d f8 70 a3 3c
       0.00645665 -0.00033556504 0.12303075 0.019951329
000340 b0 6a 39 3c 05 8d 30 3d 6e be a4 bd e1 fd ad 3d
       0.01131694 0.043103237 -0.08044134 0.08495689
000350 c8 08 8c bd cd 0c 59 bd 14 41 63 bd 26 df 81 3d
       -0.068376124 -0.052990723 -0.055481985 0.0634139
000360 a5 dc 50 bc 62 a7 94 bd 08 68 29 3f 5b 2b 20 3d
       -0.012747918 -0.07258488 0.66174364 0.039103847
000370 1a e3 ac 3d c9 09 14 3e c8 6b 8b 3d a6 15 89 3a
       0.08441754 0.14456858 0.06807667 0.0010458722
000380 0a 4c 16 bd f2 43 af 3c 40 de f4 3c d9 ae 87 bd
       -0.03669361 0.021394704 0.029891133 -0.066251464
000390 37 25 0f 3d 05 89 96 3d 32 8e b4 3c 82 2d 0b 3d
       0.0349476 0.07350353 0.02204046 0.033978947
0003a0 44 38 c6 bd 37 64 0f 3d 85 2b e6 3b fe 9a 9a bd
       -0.096787006 0.03500768 0.007024231 -0.07549094
0003b0 58 fe de bc 9f ff 84 bc 43 ff 24 3d 55 da 90 3d
       -0.02722089 -0.01623517 0.0402825 0.070728935
0003c0 3f 13 90 3d 43 6e 06 bc d6 48 0c bd 17 e1 57 3d
       0.07034921 -0.008204999 -0.03424915 0.052704897
0003d0 77 e5 a7 bd 91 b7 b3 3b 2f 98 66 bd 79 9c 83 3c
       -0.08198064 0.0054845293 -0.056297477 0.016065823
0003e0 9d de 8c bd 7c 92 77 bc 22 10 28 bd 67 61 10 bb
       -0.068783976 -0.015110608 -0.04103101 -0.0022030713
0003f0 7f 9c fb 39 7c 82 8e bd fe 10 2b 3d db 38 b7 3d
       0.0004799105 -0.06958482 0.041764252 0.08946391

layers.0.bias f4 [16]
000000 89 11 a3 3c 08 db 84 3d 8a 3e a8 bd 5d ca 58 bd
       0.019905822 0.064870894 -0.082150534 -0.052927364
000010 be 6b 66 bc 3f 62 b6 bd 91 6c b0 bd f2 0e 8f bd
       -0.014063774 -0.08905458 -0.086144574 -0.069852725
000020 0f 17 76 3d 20 17 4b bc 2b 65 a9 bd c0 86 74 bd
       0.060080584 -0.01239565 -0.082712494 -0.05969882
000030 72 fe 3f 3d 65 31 54 3d 39 2e 84 3d f0 43 f1 bc
       0.046873517 0.05180492 0.06454129 -0.02945134

layers.2.weight f4 [8, 16]
000000 19 9a 40 3d 24 b3 20 3c 78 c6 06 be 70 21 70 bd
       0.04702196 0.009808335 -0.13161647 -0.05862564
000010 fb bf 4e bb f2 8b 2e 3e b5 de b0 bd 43 8f 19 3e
       -0.0031547535 0.17045572 -0.08636228 0.14996056
000020 b1 9f 1e 3d 36 e2 48 be bc 0e e8 3d 3d b6 72 be
       0.038726512 -0.19617543 0.11330935 -0.23702331
000030 96 1c 18 be a3 5a 84 bd 5b 1d 19 be dc f0 3b 3d
       -0.14854655 -0.064626 -0.14952604 0.045884
000040 7d bd 02 3c ec 61 c1 3d d3 22 92 3e 00 9c 80 3e
       0.007979748 0.09442505 0.28542194 0.2511902
000050 04 3a 0d 3e 6f 7b 53 3e 99 57 75 3d f2 56 ab 3d
       0.13791662 0.20652555 0.059897993 0.08366193
000060 81 33 c0 3c a8 21 ef bd e8 f5 0d 3e e1 52 4b 3d
       0.023462059 -0.11676341 0.13863337 0.049639586
000070 40 9b b6 bb 0d 28 d3 3d 69 70 e4 3b 4f 27 27 3e
       -0.0055727065 0.103103735 0.006971408 0.16323589
000080 c1 f7 35 3e 82 d7 73 bc 13 f0 32 3d bd c8 25 be
       0.17770292 -0.014882924 0.043685984 -0.16189857
000090 84 82 5a 3b 94 0d f2 3d 57 4a 84 be 7e 13 07 3e
       0.0033341954 0.11818996 -0.25837967 0.1319103
0000a0 85 90 84 3c 78 fb 70 3d aa 33 79 3e 27 f4 77 3e
       0.016182194 0.05883357 0.24336115 0.2421423
0000b0 40 2f a6 bc 4a a7 77 be 5b 10 7c be 2c 4b 43 3e
       -0.020286202 -0.2418491 -0.24615614 0.19071645
0000c0 8c 12 3f 3e 12 f0 3d 3e 6b 3c 57 3e 67 70 31 be
       0.18659419 0.18548611 0.21019141 -0.17328034
0000d0 42 4e 52 3e 1d 04 08 3d 4e 50 5a be b3 a0 82 3e
       0.20537665 0.033207048 -0.21319696 0.2551323
0000e0 65 0e 11 3e e0 1b e6 3c 74 16 f9 3d 89 4d 02 bd
       0.14165647 0.028089464 0.12162486 -0.031812225
0000f0 84 24 a0 bd 15 04 84 3e ea b1 e4 bd c1 1d 53 3e
       -0.07819465 0.25784364 -0.11166747 0.20616819
000100 bb 99 25 3d 46 1c 65 b7 92 02 b5 3a 24 de 76 3e
       0.040429812 -1.3656047e-05 0.001380997 0.24108177
000110 b5 a7 a6 bd 3b 86 06 be a1 2d 4c 3e 21 7a ac bd
       -0.08137456 -0.13137142 0.19939281 -0.08421732
000120 3e 73 43 3d 80 9e 13 3b 6c d6 34 be aa 8e e5 3d
       0.047717325 0.0022524893 -0.1765992 0.11208852
000130 08 54 20 3d 2d 08 ef bd a1 ee 07 3c be 21 0f be
       0.03914264 -0.11671481 0.00829664 -0.13977715
000140 7d 2f 63 be aa 9b eb 3d f4 9b 0a 3e 98 b2 41 3e
       -0.22186084 0.115043 0.13536054 0.18915784
000150 8c 29 23 3e c6 11 ed 3d 57 ca ad 3d b2 dc 14 bd
       0.15933818 0.11575656 0.08485859 -0.036343284
000160 52 91 19 be fc c9 1e be e6 c1 53 3e a6 39 6b 3e
       -0.14996842 -0.15506738 0.20679435 0.2297121
000170 88 02 17 bd 08 a1 26 39 48 d3 17 be fa 58 41 3d
       -0.03686765 0.00015890982 -0.14826691 0.047203995
000180 99 b2 80 3e 08 34 59 be f2 89 45 3e a0 1b 3a be
       0.2513626 -0.21211255 0.19290903 -0.181746
000190 73 a1 4d 3e 4c 1a 1f 3e b8 8f 56 be d8 a7 92 bc
       0.20081119 0.15537375 -0.20953262 -0.0179023
0001a0 87 64 2d 3e a0 4e a3 bd a0 7f 1e bd 92 99 47 be
       0.1693288 -0.07973981 -0.03869593 -0.19492176
0001b0 56 38 7f 3e 1d 85 5b 3e a3 11 0c 3e 0a 91 74 bd
       0.24923834 0.21437497 0.13678603 -0.059708633
0001c0 91 f8 8f 3e db 99 ab 3d 47 96 1f be a6 b8 ed bd
       0.2811933 0.08378955 -0.1558467 -0.116074845
0001d0 16 26 43 be b2 8b 78 bd 20 ec 8a be 9b 57 8d 3e
       -0.19057497 -0.0606801 -0.27133274 0.276059
0001e0 92 65 18 be 26 02 12 3e fe 1e 07 3e 68 36 36 3e
       -0.14882496 0.14258632 0.13195416 0.17794192
0001f0 62 06 12 be bc 35 2b 3e a5 9a 4b 3e b2 e1 7e bd
       -0.14260247 0.16719717 0.19883211 -0.06222696

layers.2.bias f4 [8]
000000 47 07 78 3e 0b e4 e1 bd ea 4b 5c 3e 24 67 6f 3e
       0.24221526 -0.11029824 0.21513334 0.23379189
000010 3e f1 5a 3d 95 35 4b be 4f 99 25 3e 86 e5 10 3e
       0.053452723 -0.19844659 0.16171764 0.14150056

layers.4.weight f4 [4, 8]
000000 7f 53 44 3e 68 15 2c be a8 b3 41 3e f9 5a 03 3e
       0.19172476 -0.16805041 0.1891619 0.12827672
000010 54 41 99 be f8 5d 8e bc a8 b4 aa be 16 c2 00 3e
       -0.29932654 -0.017378792 -0.33340955 0.12574038
000020 00 69 79 3d d5 e7 a9 be cc 00 bc bd d8 a1 18 3d
       0.06089115 -0.33184686 -0.091798395 0.03726372
000030 e6 8c 12 be 7c a6 f2 3d f8 73 93 be 0e d4 04 3e
       -0.14311561 0.118481606 -0.28799415 0.12971517
000040 08 6a 88 bd 69 04 a4 be 70 b3 70 bd 8b c6 a3 3e
       -0.06660849 -0.32034615 -0.058764875 0.31987414
000050 ea 30 3b be 7b bb 40 be 90 22 9f bd 6a 68 b1 be
       -0.18280378 -0.18821518 -0.07770264 -0.34649974
000060 b7 eb ab 3e 75 b8 aa 3e d1 0c 09 be 3c 2c 03 3f
       0.33578274 0.33343855 -0.13383795 0.5123937
000070 65 cd a4 be ce 53 0f 3e a7 79 80 3e 4d 51 f8 3e
       -0.32187954 0.13996813 0.25092813 0.48499528

layers.4.bias f4 [4]
000000 d6 fe 30 be 28 54 62 bd e6 46 27 3e 22 12 8c be
       -0.17284712 -0.05525604 0.1633564 -0.27357584

layers.6.weight f4 [1, 4]
000000 bd 3e a3 bd b2 ef 98 be 48 93 28 3e 04 01 20 3f
       -0.07970951 -0.29870373 0.16462433 0.6250155
